pendulum_rl_final_model.pt (torch, 24149 bytes, 6 tensors)

network.0.weight f4 [64, 4]
0	0x410715e9	8.442849
1	0x40a9bc1e	5.3042135
2	0xbe33ef53	-0.17571764
3	0x3cd4e6eb	0.025989017
4	0xc0885400	-4.260254
5	0xc02d4d7a	-2.7078538
6	0xbfa4cec9	-1.2875606
7	0x3ed98796	0.42486256
8	0x40ebb29e	7.365554
9	0x4089dbdb	4.308088
10	0x3e2b16a0	0.1670785
11	0x3c8e1f57	0.017348928
12	0x41139524	9.223911
13	0x40c0402c	6.0078335
14	0xbdbec4f5	-0.0931491
15	0x3b72489a	0.0036969543
16	0x411bf8c5	9.748235
17	0x40c1ac86	6.05231
18	0xbeb0c25d	-0.34523287
19	0xbb4dbaa7	-0.003139177
20	0xc0739a0b	-3.806277
21	0xbdd5eb59	-0.1044528
22	0xbeb5590b	-0.35419497
23	0x3f045712	0.5169536
24	0xc10a5ebd	-8.648129
25	0xc0a7e06d	-5.2461457
26	0x3d155f70	0.03646797
27	0xbc89d674	-0.016825892
28	0xc0285f07	-2.6308
29	0xc098a6b5	-4.77035
30	0x3e8b7094	0.27234328
31	0xbdbdc32f	-0.09265744
32	0x41055924	8.334263
33	0x40829991	4.081246
34	0xbe24b9cd	-0.16086502
35	0x3c8461b3	0.016159868
36	0x41094aca	8.580759
37	0x40c7b234	6.2405033
38	0xbe18643a	-0.14881983
39	0x3c3132c6	0.010815328
40	0x3e197950	0.14987683
41	0xbe8c0d6b	-0.27353987
42	0x4015d6cb	2.341235
43	0x3ee59a9a	0.44844514
44	0x3f85ea8f	1.0462207
45	0xbf82636f	-1.0186595
46	0x3f2067f7	0.6265864
47	0x3f030b65	0.5118926
48	0x3ff5d66a	1.9206059
49	0x3fa54564	1.2911801
50	0xbfef67e4	-1.870358
51	0xbf0ec44a	-0.55768263
52	0xbec45b9c	-0.38351142
53	0x3ed20ed6	0.41026944
54	0x3e1378d8	0.14401567
55	0x3e5413cc	0.20710677
56	0x3fd96c0c	1.6986098
57	0xbeedfe5d	-0.46483126
58	0x3da2f95b	0.07957717
59	0xbea19861	-0.31561568
60	0x3d00f320	0.031481862
61	0xbeaebaf4	-0.3412701
62	0x3e1de050	0.154176
63	0xbe3052e0	-0.17219114
64	0xbe9929aa	-0.299146
65	0xc0039171	-2.055752
66	0xbf157cca	-0.5839354
67	0xbe636cfd	-0.22209544
68	0xc0ff6c35	-7.981959
69	0xc0a11721	-5.0340734
70	0x3efb21da	0.49049264
71	0x3c774695	0.015092512
72	0x3ed3c639	0.4136217
73	0xbfbcf236	-1.4761417
74	0xc04264e9	-3.037409
75	0x3bd45028	0.006479282
76	0xc1014cba	-8.081232
77	0xc0634f3a	-3.5517106
78	0x3f5ff3c9	0.8748136
79	0xbbe295e6	-0.006914842
80	0xc079c0a6	-3.9023833
81	0xc04f97c8	-3.243639
82	0x3f5c6dcb	0.8610503
83	0x3bd7561f	0.0065715457
84	0x40ec9d6d	7.394217
85	0x400bf7b6	2.186994
86	0x3dbffa18	0.093738735
87	0xbd3709d4	-0.044687107
88	0xc0fdcd7a	-7.9313326
89	0xc098ee68	-4.7791023
90	0x3ef2d4e8	0.4742806
91	0x3b9a2edd	0.0047052936
92	0x4021d7fb	2.5288074
93	0x4016296f	2.346279
94	0x3f1d6d67	0.6149506
95	0xbf0289a6	-0.50991285
96	0x410cda10	8.803238
97	0x40a30f14	5.0955906
98	0xbcbddbaa	-0.023176033
99	0x3c4495e8	0.011998631
100	0xc04b049c	-3.1721563
101	0xbfb82496	-1.4386165
102	0x3e2aef29	0.16692795
103	0xbe99512d	-0.29944745
104	0xc0ed3105	-7.412234
105	0xc09efb66	-4.9681883
106	0x3ede6d01	0.43442538
107	0xbbb28219	-0.0054476378
108	0xc08442f6	-4.133174
109	0xbfee0146	-1.8594139
110	0xbf554cf3	-0.8332054
111	0xba8f09b4	-0.0010912926
112	0xc038f880	-2.8901672
113	0xc009f3b7	-2.1555002
114	0x3f325dc0	0.696743
115	0xbb2f4c19	-0.0026748239
116	0xc0423fe9	-3.0351508
117	0xbfff2ed3	-1.9936165
118	0x3f202d43	0.62569064
119	0xbabd0557	-0.0014421147
120	0x3ab59e00	0.0013856292
121	0xbe3e8450	-0.1860516
122	0xbd0deaf0	-0.034647882
123	0xbead7924	-0.33881485
124	0xc10da3cc	-8.852489
125	0xc086e7dc	-4.215803
126	0xbe377a66	-0.17917785
127	0xbcbd72a3	-0.023125952
128	0x4112f891	9.185685
129	0x40663ba4	3.5973902
130	0xbe3156d9	-0.17318286
131	0x3a478269	0.000761068
132	0xc12a9601	-10.661622
133	0xc0c24c28	-6.0717964
134	0xbdb61fd9	-0.08892793
135	0xbd06db5d	-0.032924045
136	0xc0687324	-3.6320276
137	0xbfe69587	-1.8014382
138	0x3f23a6e4	0.6392653
139	0x3bfec611	0.007775076
140	0xc05bbaf0	-3.4332848
141	0xc0bec780	-5.961853
142	0x3f08d757	0.5345358
143	0xbd324b16	-0.04352864
144	0x408a131c	4.3148327
145	0x4025409d	2.5820687
146	0x403975f2	2.8978238
147	0x3e6ec98e	0.23319075
148	0x3ee934a0	0.45547962
149	0xbecafcf2	-0.39646107
150	0x3e00da88	0.12583363
151	0xbe5c3978	-0.21506298
152	0xc0f7e9f9	-7.747311
153	0xc0976f6e	-4.7323523
154	0x3efb4054	0.49072516
155	0x3ca6ef28	0.02037771
156	0x40aae4cc	5.3404293
157	0x3feafb7b	1.8357996
158	0x3d469041	0.048477415
159	0xbb11de69	-0.002225781
160	0x411e662b	9.899943
161	0x40c696c9	6.2059064
162	0xbd5b92e9	-0.0536069
163	0x3cf2c222	0.029633585
164	0xbff5c27f	-1.919998
165	0xc009670e	-2.146915
166	0xbec9e8fd	-0.39435568
167	0x3ebbc2cf	0.36672065
168	0xc1087a52	-8.529863
169	0xc0bd50ff	-5.916137
170	0x3e68dc63	0.22740321
171	0xbca19229	-0.019723015
172	0x40a5397a	5.163266
173	0x401ee9f5	2.4830296
174	0x3fc0edb0	1.5072536
175	0xbbf6a448	-0.007526908
176	0xc11408b0	-9.252121
177	0xc081ab98	-4.0521965
178	0x3f1586be	0.58408725
179	0x3b689c97	0.0035493725
180	0x40814919	4.040173
181	0x3fc22a6e	1.5169199
182	0xbf381713	-0.7191021
183	0xbdba75c0	-0.0910449
184	0x407e73a9	3.9758093
185	0x3fe5742f	1.7926081
186	0xbf55cc91	-0.8351527
187	0xbc55c8d5	-0.01304837
188	0xbe9710bc	-0.29504955
189	0x3d24eaf2	0.040263124
190	0xbff78214	-1.9336572
191	0x3c0b59d8	0.008505307
192	0x40831c42	4.0971994
193	0x3fbc6636	1.4718692
194	0xbf463508	-0.7742467
195	0x3def698c	0.11690053
196	0xc104717f	-8.277709
197	0xc0e1cd8d	-7.0563416
198	0x3f897516	1.0738857
199	0x3eb68cec	0.3565439
200	0xc06f0239	-3.7345107
201	0xbf2e19b9	-0.68008
202	0xbdf4b5cb	-0.11948737
203	0x3c0622a8	0.008186974
204	0xc0f316db	-7.59654
205	0xc0a0a277	-5.019832
206	0x3ee36793	0.44414958
207	0xbbe1aee5	-0.006887304
208	0xc106153a	-8.380182
209	0xc085bfc7	-4.1796603
210	0x3f021a44	0.5082133
211	0x3b0936ce	0.0020937207
212	0xc10c025d	-8.750577
213	0xc09e1ebf	-4.941253
214	0x3f0b48ac	0.54407763
215	0x3c921ffb	0.017837515
216	0xc09577f4	-4.6708927
217	0xc0966fcc	-4.701147
218	0xbfba0ee0	-1.453579
219	0x3b5b40e1	0.003345542
220	0xc1104f26	-9.019323
221	0xc0922984	-4.567568
222	0xbe0cfb04	-0.1376763
223	0xbcb3346c	-0.021875583
224	0xbeda1b7c	-0.42599094
225	0x3ebcb3c0	0.36855888
226	0x3f043f49	0.51659065
227	0xbd427fd0	-0.047485173
228	0xc104f49b	-8.309718
229	0xc09d51c1	-4.9162297
230	0xbd0ccf65	-0.034377474
231	0xbc8ca9a5	-0.017170737
232	0x40f5b657	7.6785083
233	0x40b86d5c	5.7633495
234	0x3e6b08fd	0.22952648
235	0xbc97c305	-0.01852561
236	0xc102ecfc	-8.1828575
237	0xc0b48e68	-5.6423836
238	0x3e46be63	0.19408564
239	0x3ca1edf7	0.01976679
240	0x4114d185	9.301152
241	0x40bc7e34	5.8904057
242	0xbf2dffbb	-0.6796834
243	0x3c9208bf	0.017826436
244	0xc0f80977	-7.7511554
245	0xc0ab4b5b	-5.3529487
246	0x3ed48fb0	0.41515875
247	0xbd5cb826	-0.053886555
248	0x40203691	2.5033305
249	0x405c9ea7	3.4471834
250	0xc008941b	-2.1340396
251	0xbf202aee	-0.62565506
252	0xc0c8eefb	-6.2791724
253	0xc0e82971	-7.255059
254	0xbf06a94b	-0.5260207
255	0xbe8b3fc8	-0.271971

network.0.bias f4 [64]
0	0x3f0fdd14	0.56196713
1	0xbeccf4f2	-0.40030628
2	0x3f03ede9	0.515349
3	0x3f25c184	0.64748406
4	0x3f33f2a0	0.7029209
5	0xbe3b8cc8	-0.18315423
6	0x3f1a8005	0.6035159
7	0x3e4b3c23	0.19847159
8	0x3f12e996	0.57387674
9	0x3f179742	0.59215176
10	0x3fe8a9c7	1.8176812
11	0x402331dd	2.5499184
12	0x3f0e4241	0.55569845
13	0xbed5c18c	-0.41749227
14	0x401b8e4e	2.4305606
15	0xbefe22c2	-0.49635893
16	0x401c4279	2.4415572
17	0x3f0a5df3	0.54049605
18	0x403da81d	2.9633858
19	0x3f617e36	0.8808321
20	0x3f04e0cf	0.5190553
21	0x3f0f805c	0.56055236
22	0x3f034fb2	0.5129348
23	0x3d3fa3ec	0.046787187
24	0x3f1e392b	0.6180598
25	0x3ea31ff2	0.3186031
26	0x3f01d5fa	0.5071713
27	0xbeaba1a1	-0.3352175
28	0xbeb0cd00	-0.34531403
29	0xbe9ee179	-0.31031397
30	0xbef34720	-0.47515202
31	0x3f1bee41	0.6091042
32	0x3f2f8826	0.6856712
33	0x3f37d167	0.718039
34	0xbeaa99e9	-0.3332055
35	0x3ee612fc	0.4493636
36	0x3fae9d96	1.3641841
37	0xbef91ffe	-0.4865722
38	0x3f02f15e	0.5114955
39	0xbda25548	-0.07926422
40	0x3f2d225a	0.6763054
41	0xbec0f384	-0.37685788
42	0x3f1ccac9	0.61246926
43	0x3f494a58	0.78629065
44	0x3f1fe32d	0.6245602
45	0x3e6636f0	0.22481894
46	0x3ef43658	0.4769771
47	0xbfa67539	-1.3004524
48	0x3e280f9a	0.16412202
49	0x3fb47d94	1.4100823
50	0x3d858ace	0.065206155
51	0x3f044459	0.5166679
52	0x3f0d2025	0.55127174
53	0x3f11d0bb	0.5695912
54	0x4035027a	2.8282762
55	0x3f1d05cf	0.6133699
56	0xbf113dbb	-0.5673482
57	0x3f11bd1d	0.5692919
58	0x3f107e18	0.56442404
59	0x3f1d9b81	0.61565405
60	0x3f090c67	0.5353455
61	0x3f0cef0c	0.55052257
62	0xbe560f3b	-0.20904247
63	0x3fd5bcc1	1.6698228

network.2.weight f4 [64, 64]
0	0x3f895caf	1.073141
1	0xbf20378b	-0.6258475
2	0x3fb55015	1.4165064
3	0x3fab08aa	1.3362019
4	0x3f3d6b20	0.73991585
5	0xbe43fabb	-0.19138615
6	0x3f2b43ea	0.66900504
7	0x3e00127e	0.12507054
8	0x3f88cd98	1.0687742
9	0x3f98cc68	1.193738
10	0xbea4427b	-0.3208197
11	0x3f5da52c	0.8658016
12	0x3c7b516b	0.015339236
13	0xbdcd5e8c	-0.10027799
14	0x3f209c43	0.62738436
15	0xbdbe6c62	-0.09298016
16	0x3ece12d8	0.40248752
17	0x3f8bb31c	1.0914035
18	0x3de57783	0.11204436
19	0x3f619d41	0.88130575
20	0xc002f23f	-2.0460355
21	0x3f7b9815	0.98278934
22	0x3f40a520	0.7525196
23	0x3e4a6a29	0.1976706
24	0x3f855a66	1.0418212
25	0xbf038833	-0.513797
26	0x3f65a100	0.8969879
27	0xc048364a	-3.1283135
28	0xc0085ff6	-2.130857
29	0xbff05e88	-1.8778849
30	0x3d0d1ccc	0.03445129
31	0x3f524385	0.82134277
32	0x3f5f8163	0.87306803
33	0x3f346bfe	0.70477283
34	0xc00c5b79	-2.193083
35	0x3ea15209	0.315079
36	0x3e211dbe	0.15734002
37	0xbc3d4990	-0.011553183
38	0x3f4b3b4f	0.7938737
39	0xbfd429c2	-1.6575243
40	0x3f5e5516	0.8684858
41	0x3e9c3d47	0.305155
42	0x3f05caf6	0.5226282
43	0xc014b4cc	-2.323535
44	0x3f62be28	0.88571405
45	0xbff48fc9	-1.910638
46	0xbff0aa23	-1.8801922
47	0xc148d7d0	-12.552689
48	0xc016f856	-2.3589072
49	0x3f37b73e	0.7176398
50	0xbfef4d21	-1.8695413
51	0x3f60f4c6	0.87873495
52	0x3f5db523	0.8660452
53	0x3f6e467b	0.93076295
54	0x3e9319bb	0.28730568
55	0x3f3201fb	0.6953427
56	0x3e99b7cb	0.30023035
57	0x3f7c0b17	0.9845442
58	0x3fb771fb	1.4331659
59	0x3f3dceb0	0.74143505
60	0x3d54c058	0.051941246
61	0x3f3c7c9a	0.73627627
62	0x3d63a3af	0.055576023
63	0x3ece1632	0.4025131
64	0x3f934028	1.1503954
65	0x3d92c0ce	0.07165681
66	0x3f811efc	1.0087581
67	0x3f97a2eb	1.1846594
68	0x3f817446	1.0113609
69	0x3ccdc065	0.025116155
70	0x3f39718b	0.7243888
71	0x3dde037d	0.10840509
72	0x3fa2988c	1.2702804
73	0x3fa08869	1.2541629
74	0xbeb09677	-0.34489796
75	0x3f450cb6	0.7697252
76	0x3df444cb	0.11927184
77	0x3c5d8350	0.013520077
78	0x3f203c0f	0.6259164
79	0xbd6c6580	-0.057713985
80	0x3ed467e6	0.41485518
81	0x3f8c54c1	1.0963365
82	0x3eaa7606	0.3329317
83	0x3f238068	0.6386781
84	0xc00ecc31	-2.2312129
85	0x3f662cf2	0.8991233
86	0x3f26af9a	0.65111697
87	0x3e7a5565	0.24446638
88	0x3f8e2190	1.1103992
89	0xbeade7f7	-0.33966038
90	0x3f3f80b5	0.74805766
91	0xc04857a4	-3.1303492
92	0xc001dc0a	-2.029055
93	0xbfff1807	-1.9929208
94	0x3db680c4	0.08911279
95	0x3f279817	0.65466446
96	0x3f5068fa	0.8141018
97	0x3f27f151	0.65602595
98	0xc00ead4c	-2.2293272
99	0x3e1049af	0.14090608
100	0x3d04943c	0.03236793
101	0xbd3b44fc	-0.045720086
102	0x3f2ed779	0.68297535
103	0xbfed89fa	-1.8557732
104	0x3f73bac6	0.9520687
105	0x3f0a0827	0.5391869
106	0x3f532514	0.8247845
107	0xc021ddc2	-2.52916
108	0x3f1025b0	0.56307507
109	0xbfe45b0d	-1.7840286
110	0xbfdb74a1	-1.7144967
111	0xc14aaca8	-12.667152
112	0xc0067a58	-2.1012173
113	0x3f229ee2	0.63523686
114	0xc00a1ef4	-2.1581392
115	0x3f5ea201	0.8696595
116	0x3f2200d7	0.6328253
117	0x3f5fd8e0	0.874403
118	0x3ee0d52c	0.43912637
119	0x3f46266a	0.77402365
120	0x3ecca735	0.3997132
121	0x3f89db9c	1.0770144
122	0x3f915ec1	1.1357042
123	0x3f758930	0.95912457
124	0x3e70d61b	0.23519175
125	0x3f341bd6	0.70354974
126	0x3d2a6a9c	0.041605577
127	0x3ea165de	0.3152303
128	0x3fa52750	1.2902622
129	0xbf53fc68	-0.82807016
130	0x3fb1e1c9	1.3897029
131	0x3f9fff65	1.2499815
132	0x3f29fb7c	0.6639936
133	0x3e52cc27	0.2058569
134	0x3f43573a	0.7630497
135	0x3e758362	0.239759
136	0x3f90a834	1.1301332
137	0x3fb2d017	1.3969754
138	0xbea238a6	-0.31683844
139	0x3f5894a8	0.8460183
140	0xbd219722	-0.039450772
141	0x3cf5e8a0	0.03001815
142	0x3f12b1a3	0.573023
143	0xbdb50340	-0.088385105
144	0x3ee6c61b	0.45073017
145	0x3f758200	0.9590149
146	0x3c5d628e	0.013512267
147	0x3f6607c4	0.898556
148	0xbfe9507f	-1.822769
149	0x3f86a279	1.0518333
150	0x3f6daf06	0.9284519
151	0x3e20b318	0.15693319
152	0x3f9d9d83	1.2313694
153	0xbf268c11	-0.65057474
154	0x3f331fea	0.6997057
155	0xc0518443	-3.2736976
156	0xc005bec1	-2.0897677
157	0xbff97ea9	-1.9491779
158	0xbd237fc0	-0.039916754
159	0x3f422ff9	0.7585445
160	0x3f405ae6	0.751387
161	0x3f0cbbee	0.5497426
162	0xc00507c9	-2.0786002
163	0x3e85ce97	0.26134178
164	0xbe1d88c3	-0.15384202
165	0xbda6abf6	-0.08138268
166	0x3f73ec00	0.9528198
167	0xbfdafd22	-1.71085
168	0x3f8aab62	1.0833552
169	0x3f3760c7	0.71632046
170	0x3f140877	0.57825416
171	0xc01dc3eb	-2.465083
172	0x3f68c840	0.9093056
173	0xbffd2a07	-1.9778451
174	0xbff832f0	-1.9390545
175	0xc14a77c9	-12.654244
176	0xc011b3b7	-2.276594
177	0x3f6f2e79	0.93430287
178	0xc005bf56	-2.0898032
179	0x3f412ef3	0.75462264
180	0x3f6b230e	0.91850364
181	0x3f669eda	0.9008614
182	0x3ec27417	0.37979195
183	0x3f5157fe	0.8177489
184	0x3e886e2c	0.26646554
185	0x3f6fbb56	0.93645227
186	0x3fa96a44	1.3235555
187	0x3f4840c2	0.7822381
188	0xbe0353ce	-0.12824938
189	0x3f51c0f9	0.8193508
190	0xbe6ef2b1	-0.23334767
191	0x3d39332f	0.045214828
192	0x3f878407	1.0587167
193	0xbfc5214b	-1.5400785
194	0x3f95dcb7	1.1707982
195	0x3f801e81	1.0009309
196	0x3f927a2d	1.1443535
197	0x3f0d84a3	0.5528051
198	0x3faa0b05	1.3284613
199	0x3f607b82	0.8768846
200	0x3f93ad37	1.1537236
201	0x3f87d77c	1.0612636
202	0xbed5f420	-0.41787815
203	0x3f616cc5	0.88056594
204	0xbd094053	-0.03350861
205	0xbdde4304	-0.10852626
206	0x3f32e9f8	0.6988826
207	0x3cc14f48	0.023597375
208	0x3f46cf4f	0.7766008
209	0x3fb87e25	1.4413496
210	0x3f3f2078	0.7465892
211	0x3f91c017	1.1386746
212	0xbfcef9fc	-1.6170039
213	0x3fb3cfee	1.404783
214	0x3fa5a9b2	1.2942412
215	0xbebe9862	-0.37225634
216	0x3f308136	0.6894716
217	0x3f0ef1d3	0.55837744
218	0x3f9b994d	1.2156159
219	0xbfc72d99	-1.556079
220	0xbfe946a5	-1.8224684
221	0xbfd1ff5d	-1.6406056
222	0xbce344f0	-0.027742833
223	0x3f99fc43	1.2030109
224	0x3fbe876d	1.4885079
225	0x3f8c2e3f	1.0951613
226	0xbfea12fb	-1.8287042
227	0x3f26754b	0.65022725
228	0xbf645cf9	-0.89204365
229	0xbd30d1e8	-0.043168932
230	0x3f974916	1.1819179
231	0xc193ba7c	-18.466057
232	0x3e9eeb75	0.31039014
233	0x3f917eef	1.1366862
234	0x3fbe125b	1.4849352
235	0xc10f70e0	-8.965057
236	0x3f980136	1.187537
237	0xc0d536c8	-6.662937
238	0xc0e40578	-7.1256676
239	0xc16b7e81	-14.718385
240	0xc0e1c077	-7.0547442
241	0x3fb53778	1.4157553
242	0xbf9e2e83	-1.2357944
243	0x3f97520b	1.1821913
244	0x3f86e45e	1.0538442
245	0x3fa71c6b	1.3055547
246	0x3f4a7e20	0.790987
247	0x3f8ef080	1.1167145
248	0x3eacbc36	0.33737344
249	0x3faae4c1	1.335106
250	0x3f75099b	0.9571778
251	0x3f9fe6be	1.2492292
252	0xbdb6ede3	-0.08932092
253	0x3faf1f89	1.3681499
254	0xbe1466bc	-0.14492315
255	0x3f62cfbf	0.88598245

network.2.bias f4 [64]
0	0x3f145508	0.5794225
1	0x3eeea53e	0.46610445
2	0x3ed3e55e	0.4138593
3	0x3f56fd00	0.839798
4	0xbdf8b4ae	-0.12143837
5	0x3ec8b663	0.3920165
6	0x3fd7bb17	1.685397
7	0x3f150d12	0.5822307
8	0x4011ea3e	2.279922
9	0x3f06ea4c	0.5270126
10	0x403cc4c6	2.94951
11	0x3fcd88ba	1.6057351
12	0x3e8ca8be	0.2747249
13	0x3ec7379a	0.38909608
14	0x3eb7c1fa	0.3589018
15	0x3ef975cf	0.48722693
16	0xbd6b1dd0	-0.05740148
17	0x3ec972d9	0.39345434
18	0xbe0da3de	-0.13832042
19	0x3ee80296	0.45314473
20	0x3f76bf2d	0.9638546
21	0xbe012087	-0.12610064
22	0x3f16a91c	0.5885179
23	0x3f121b39	0.5707279
24	0xbdd597d2	-0.10429348
25	0x3d343501	0.04399586
26	0xbcca326b	-0.024682244
27	0x3f7fe075	0.9995187
28	0x3f08f15b	0.5349328
29	0x3ee112a3	0.4395953
30	0x3f1a59ad	0.60293084
31	0x3f02627d	0.5093153
32	0xbda62d82	-0.08114149
33	0x3ebc20ac	0.36743677
34	0x3ec8abe7	0.3919365
35	0x3b3c6bd5	0.0028750796
36	0xbd51486c	-0.051094458
37	0x3faf5024	1.3696332
38	0x3ea92ae6	0.3304054
39	0x3ecb26f7	0.39678165
40	0xbdeca9ee	-0.11555849
41	0x3eebd185	0.46058288
42	0x3ef1ff56	0.47265118
43	0x3dbe4a4c	0.09291515
44	0x3ea83ecd	0.32860413
45	0x3aa9d752	0.0012957847
46	0xbd33a4f4	-0.043858483
47	0x3f0aec8e	0.54267204
48	0x3f96cebb	1.1781839
49	0x3f07dab8	0.53068113
50	0x3f34ac76	0.70575655
51	0x3ee7a857	0.4524562
52	0x3f0e4e96	0.5558866
53	0x3f10d750	0.5657854
54	0x3f0d4b3b	0.5519292
55	0xbdd6d5a5	-0.10489968
56	0x3eda7c0c	0.42672765
57	0x3d49d50c	0.049275443
58	0x3fc1a51b	1.5128511
59	0xbd4bac08	-0.04972461
60	0x3eea7f00	0.45800018
61	0x3ebef482	0.3729592
62	0x400ca29f	2.1974256
63	0x3bed0e48	0.0072343685

network.4.weight f4 [11, 64]
0	0x3fabdef4	1.3427415
1	0x3f95ee2f	1.1713313
2	0x3fc2de9f	1.5224189
3	0x3fbba7ec	1.4660621
4	0xbd9a57bc	-0.07536265
5	0x3facdf35	1.3505617
6	0xbf9fa00a	-1.2470715
7	0x3f8b9375	1.0904375
8	0xc014c93c	-2.3247824
9	0x3fca3e6a	1.5800297
10	0xc01d75f8	-2.4603252
11	0xbf845d98	-1.0341063
12	0x3fb62de3	1.4232754
13	0xbe93141e	-0.28726286
14	0x3fb47f67	1.410138
15	0x3fa98cb4	1.3246064
16	0xbd2560f8	-0.04037568
17	0x3f7d89b0	0.9903822
18	0xbcb695c9	-0.02228822
19	0x3fd0a01a	1.6298859
20	0x3fbede00	1.4911499
21	0x3b79cbf5	0.0038115953
22	0x3fc6981d	1.5515171
23	0x3f9b0414	1.211062
24	0xbd86b85b	-0.06578132
25	0xbcb805a4	-0.022463627
26	0xbc2b5fdc	-0.010459866
27	0x3fcc0b9f	1.5941046
28	0x3f8b8d35	1.0902468
29	0x3fbe2c03	1.4857181
30	0x3fb31297	1.3990048
31	0x3fa699ac	1.3015647
32	0xbc0a2d40	-0.00843364
33	0x3fc6be4e	1.5526826
34	0x3f96c1cd	1.1777893
35	0xc0dbd561	-6.869797
36	0xc09edd40	-4.964508
37	0xbff21b4c	-1.891458
38	0x3f8cf602	1.1012576
39	0x3fbdb795	1.482165
40	0xbde06d32	-0.10958327
41	0xbfcde976	-1.6086872
42	0x3f981a26	1.188298
43	0xbd4d9af2	-0.050196595
44	0x3fbd51eb	1.4790624
45	0xc0d0c7a6	-6.524371
46	0x3aad2e00	0.0013212562
47	0x3faddec9	1.3583614
48	0x3e2cc137	0.1687058
49	0x3fbe47ca	1.4865658
50	0xc0013cca	-2.0193353
51	0x3fcc826e	1.5977304
52	0x3fa53f60	1.2909966
53	0x3fbc51b7	1.4712437
54	0x3fc26eb9	1.519004
55	0x3d74c2c8	0.05975607
56	0x3fb9f0ce	1.4526613
57	0xc0b30830	-5.5947495
58	0xbfebb68c	-1.8415084
59	0x3d5aa56c	0.053380415
60	0x3fb96ea1	1.4486886
61	0x3fc2ab72	1.5208571
62	0xc022835e	-2.539268
63	0xbd09cb56	-0.033641182
64	0x3fb6151d	1.4225193
65	0x3fae0e24	1.3598065
66	0x3fc54720	1.5412331
67	0x3fe2d07b	1.7719873
68	0xbd27fcfc	-0.04101275
69	0x3fabfbe0	1.3436241
70	0xbf90ead4	-1.1321664
71	0x3f8d567b	1.1042017
72	0xc02a641d	-2.6623604
73	0x3fd369c3	1.6516651
74	0xc02da282	-2.7130437
75	0xbf29421a	-0.6611649
76	0x3f96c9d4	1.1780343
77	0xbec2dd45	-0.3805944
78	0x3f94dac7	1.1629266
79	0x3f8eb346	1.114846
80	0xbdc062d0	-0.09393847
81	0x3faa6cf1	1.3314496
82	0x3d099e40	0.033598185
83	0x3fa5e9f9	1.2962028
84	0x4016c898	2.3559933
85	0x3d0f0fc5	0.03492715
86	0x3fc1481f	1.5100135
87	0x3f8eebe4	1.1165738
88	0x3db687d0	0.08912623
89	0xbd8a7e2b	-0.06762346
90	0x3dbeab39	0.09310002
91	0x4001b79a	2.0268312
92	0x3fa7cbf9	1.3109123
93	0x3fb0d4bd	1.3814923
94	0x3fc661d2	1.5498602
95	0x3f8f6f38	1.1205816
96	0xbcc7a880	-0.02437234
97	0x3fa4a2dd	1.2862202
98	0x3f99aeef	1.200651
99	0xc0ce7fab	-6.4530845
100	0xc0aaf1b1	-5.3420033
101	0xbfe70a21	-1.8049966
102	0x3fbd93a3	1.481068
103	0x3fab8726	1.3400619
104	0x3df371e6	0.11886959
105	0xbfafc5ba	-1.3732216
106	0x3fac2508	1.3448801
107	0x3c0262a7	0.007958091
108	0x3f9242b2	1.1426604
109	0xc0f6b493	-7.7095428
110	0x3dec8a5a	0.11549826
111	0x3fbb9a30	1.4656429
112	0x3daa8217	0.08325594
113	0x3fa2ab3f	1.270851
114	0xbfd3ba01	-1.6541139
115	0x3f914d9a	1.1351807
116	0x3fa743b6	1.3067539
117	0x3fcc4099	1.5957214
118	0x3fb4d366	1.4127014
119	0xbb223680	-0.0024751723
120	0x3f97ca9a	1.1858704
121	0xc09df1ab	-4.9357505
122	0xbfe9e77e	-1.8273771
123	0x3de0857e	0.109629616
124	0x3f9c21d6	1.2197826
125	0x3fb52ad8	1.41537
126	0xc034cbaa	-2.8249307
127	0xbd0d92ea	-0.034563936
128	0x3fa7a606	1.3097541
129	0x3f826041	1.0185624
130	0x3fbd3b61	1.4783746
131	0x3f217f5c	0.6308496
132	0xbd512770	-0.051063
133	0x3fb4f7ec	1.413816
134	0xbfd8e792	-1.694567
135	0x3fa24a23	1.2678875
136	0xbff602b1	-1.9219571
137	0x3f8c3cb3	1.0956024
138	0xbff3241e	-1.8995397
139	0xbff66188	-1.9248514
140	0x3fb13f20	1.3847389
141	0xc0307afc	-2.7575064
142	0x3f9cecf2	1.225981
143	0x3f8fbe30	1.1229916
144	0xbc9f5edb	-0.01945441
145	0x3fb5c45d	1.420055
146	0x3d8e7614	0.06956115
147	0x3f9d230b	1.2276319
148	0x3fa95f14	1.323214
149	0xbd16b1d8	-0.0367907
150	0x3faaf449	1.33558
151	0x3fae6260	1.3623772
152	0xbd2cc74c	-0.04218225
153	0xbd0b8aa7	-0.034067776
154	0xbde9e2ec	-0.11420235
155	0x3fb7c346	1.4356468
156	0x3fa6c0e5	1.3027617
157	0x3fc85be0	1.5653038
158	0x3f9d87b1	1.2307035
159	0x3fb65960	1.4246025
160	0xbd1b38e4	-0.037896052
161	0x3fc179aa	1.5115254
162	0x3fafad2d	1.3724724
163	0xc08f65ad	-4.4811616
164	0xc0898126	-4.297015
165	0xbfda25bd	-1.7042767
166	0x3f993c1e	1.1971471
167	0x3face1f9	1.3506461
168	0x3dba0539	0.090830274
169	0xc03714a7	-2.8606355
170	0x3fc278e2	1.519314
171	0xbd728af3	-0.059214544
172	0x3f7d66d3	0.9898502
173	0xc0e211f6	-7.0646925
174	0xbccb6fc8	-0.024833575
175	0x3fb9b9f9	1.4509879
176	0x3fbffe21	1.4999429
177	0x3f9fb449	1.2476894
178	0xbf434c67	-0.76288456
179	0x3f9ee24e	1.2412813
180	0x3fb7ce7e	1.4359891
181	0x3fa18cc9	1.2621089
182	0x3f97d9cc	1.1863341
183	0xbcef8a80	-0.029240847
184	0x3f8bcd30	1.0921993
185	0xc050ccc6	-3.2624984
186	0xbfd8bd21	-1.6932718
187	0x3d5ada44	0.05343081
188	0x3f8de0b5	1.10842
189	0x3f9d7e0e	1.2304094
190	0xc0087ba4	-2.1325464
191	0x3dbc8a0c	0.09206018
192	0x3fa61335	1.2974612
193	0x3fa6c90d	1.3030106
194	0x3fb15e73	1.3856949
195	0x3f99f2c2	1.2027209
196	0x3df6fd24	0.120600015
197	0x3f9eba5f	1.2400626
198	0xbfdbfe49	-1.7186977
199	0x3f9dcc8c	1.2328048
200	0xc0002b22	-2.0026326
201	0x3f960273	1.1719497
202	0xc00e35db	-2.222037
203	0xbfc68add	-1.5511128
204	0x3fbe4c40	1.486702
205	0xc0524cdc	-3.2859411
206	0x3faffb1e	1.374851
207	0x3fa9069b	1.3205141
208	0xbdd620b4	-0.104554564
209	0x3f4a07e6	0.789183
210	0xbdb0d884	-0.08635047
211	0x3fa81601	1.3131715
212	0x3fd374f1	1.6520063
213	0xbcafc235	-0.02145491
214	0x3f9cfa03	1.2263798
215	0x3f940952	1.1565344
216	0x3df44e94	0.1192905
217	0xbd2bedba	-0.04197476
218	0x3d526829	0.051368866
219	0x3fc901f1	1.5703717
220	0x3f952bb7	1.1653966
221	0x3fb41ff3	1.407225
222	0x3f9a1646	1.2038047
223	0x3fb7db3f	1.4363784
224	0x3da33af0	0.07970226
225	0x3fb35e8f	1.4013232
226	0x3f9f36ec	1.2438636
227	0xc061061d	-3.5159981
228	0xc0672f0b	-3.6122463
229	0xbfe63476	-1.798476
230	0x3f6a2377	0.91460365
231	0x3faadd3c	1.3348765
232	0xbe023cf5	-0.12718566
233	0xc04635a5	-3.0970242
234	0x3f5f1f36	0.87157
235	0xbd5ef28c	-0.05443053
236	0x3fa10413	1.2579368
237	0xc0f67b55	-7.702555
238	0xbce736c8	-0.028224364
239	0x3fb30dba	1.3988564
240	0x3faf82fb	1.3711847
241	0x3fc2dbb4	1.5223298
242	0xbedba7a9	-0.42901352
243	0x3fa28515	1.2696863
244	0x3f9c8d7a	1.2230675
245	0x3fb9676d	1.4484688
246	0x3f9d9b13	1.231295
247	0x3cd5e9b0	0.026112407
248	0x3faeed79	1.3666221
249	0xc040be5a	-3.0116181
250	0xbff3a038	-1.903327
251	0x3dfd2ac8	0.123616755
252	0x3fa1907c	1.2622218
253	0x3fa8c501	1.3185121
254	0xc00b3582	-2.1751409
255	0xbd52ec89	-0.05149511

network.4.bias f4 [11]
0	0xbb66fe50	-0.0035246797
1	0x3f346bae	0.70476806
2	0xbea7bf65	-0.3276321
3	0xbf82c291	-1.0215627
4	0xbdcd4cb5	-0.10024396
5	0xbe12404a	-0.14282337
6	0x3faff057	1.3745221
7	0x3fc6ee61	1.5541497
8	0x3f91f72d	1.1403557
9	0x3ff48783	1.9103855
10	0xbd0a41b0	-0.03375405
