pendulum_rl_best_model.pt (torch, 24137 bytes, 6 tensors)

network.0.weight f4 [64, 4]
0	0x412dd43e	10.864317
1	0x40bdb54e	5.928382
2	0xbdf591ab	-0.119906746
3	0xba281789	-0.00064121984
4	0xbdf7e31b	-0.12103864
5	0x3dd1bc6e	0.10241018
6	0xbe43bc4a	-0.19114795
7	0x3e770e74	0.24126607
8	0x409047bf	4.508758
9	0x40811e0a	4.034917
10	0x40a46814	5.137705
11	0xbdaac83f	-0.08338975
12	0x4129bb34	10.608204
13	0x40acc46a	5.3989763
14	0xbda148fe	-0.0787525
15	0xbc634492	-0.013871329
16	0x4122c76b	10.173686
17	0x40cccc4c	6.3999386
18	0xbec50ff4	-0.38488734
19	0xbc8c034a	-0.017091412
20	0xc09a7d04	-4.8277607
21	0xc00db749	-2.2143118
22	0xbe533ee6	-0.20629463
23	0x3a1afa03	0.00059118884
24	0xc11d7031	-9.8398905
25	0xc0aa2084	-5.316469
26	0x3bff495e	0.0077907285
27	0xbbe599f5	-0.0070068785
28	0xc080eb05	-4.028689
29	0xc0241d28	-2.5642796
30	0x3f0e4bc0	0.55584335
31	0xbd74b39c	-0.0597416
32	0x412be1f9	10.742669
33	0x40e54f6c	7.165945
34	0xbeaad6bc	-0.33366954
35	0x3d293580	0.041310787
36	0x4129a8de	10.603727
37	0x40b36afc	5.6068096
38	0xbdadd4da	-0.08487864
39	0xbc914168	-0.017731383
40	0x4004d2db	2.0753696
41	0x3fc208a0	1.5158882
42	0x3fd15e73	1.6356949
43	0x3f635816	0.88806283
44	0xc0903a30	-4.507103
45	0xbffaa3a6	-1.9581192
46	0x40056687	2.0843828
47	0x3cfc0d9a	0.030768204
48	0x3e514afa	0.20438758
49	0xbf5fa3e1	-0.87359434
50	0xc0047343	-2.069535
51	0xbf2518ed	-0.6449116
52	0xbec45b9c	-0.38351142
53	0x3ed20ed6	0.41026944
54	0x3e1378d8	0.14401567
55	0x3e5413cc	0.20710677
56	0x40db87fc	6.8603497
57	0x4058dc05	3.388429
58	0x3faf7712	1.3708212
59	0xbe066d54	-0.13127643
60	0x3d00f320	0.031481862
61	0xbeaebaf4	-0.3412701
62	0x3e1de050	0.154176
63	0xbe3052e0	-0.17219114
64	0xc0099398	-2.1496334
65	0xc09578e0	-4.6710052
66	0x3fe57493	1.7926201
67	0xbc6ba59d	-0.014382747
68	0xc0eb205b	-7.3476996
69	0xc055f56d	-3.3431046
70	0x4017796d	2.3667862
71	0x3c41049f	0.011780887
72	0x3fe62da2	1.7982676
73	0xc0950e27	-4.6579776
74	0xbf13c231	-0.5771819
75	0xbbec35e9	-0.007208575
76	0xc04d870e	-3.211368
77	0xbfaaee35	-1.3353945
78	0x3f801ca5	1.0008742
79	0x3f438231	0.7637053
80	0xc0659f42	-3.5878453
81	0xc00da587	-2.213228
82	0x3f8e1d66	1.1102722
83	0xbc682a9f	-0.014170318
84	0x411ab5fe	9.669432
85	0x408e0719	4.4383664
86	0x3cc2cf9b	0.023780635
87	0xbb7ef35f	-0.0038902385
88	0xc10d2a69	-8.822854
89	0xc09474a7	-4.63924
90	0x3c133b9e	0.008986382
91	0xbb828f0e	-0.0039843386
92	0x4108fa0a	8.561045
93	0x40d5325a	6.6623964
94	0xbe07f742	-0.13277915
95	0xbc2a5c56	-0.010397991
96	0x412cf95a	10.810877
97	0x40b2a7fd	5.5830064
98	0xbdd08eb0	-0.101834655
99	0xbbcb7fb6	-0.0062102927
100	0xc016bf82	-2.3554387
101	0xbf8cbf5c	-1.0995898
102	0x3ef31db4	0.474836
103	0xbed7b068	-0.42126775
104	0xbd97754e	-0.07395421
105	0xbfc2c8d8	-1.5217543
106	0xc0359a2c	-2.837535
107	0xbe8a2ca5	-0.26987186
108	0xc08d8888	-4.4229164
109	0xc01ee3b9	-2.482649
110	0x3ee7329f	0.45155808
111	0xbcbadcb3	-0.022810316
112	0xc07be7d8	-3.9360256
113	0xc01f3e6c	-2.488185
114	0x3f23af33	0.6393921
115	0x3cafcbd6	0.021459501
116	0xc0928e3f	-4.579864
117	0xc01df508	-2.4680805
118	0xbdc5ea20	-0.096637964
119	0x3c0a976a	0.0084589515
120	0x3ab59e00	0.0013856292
121	0xbe3e8450	-0.1860516
122	0xbd0deaf0	-0.034647882
123	0xbead7924	-0.33881485
124	0xc1150d78	-9.315788
125	0xc0a3c0d9	-5.117291
126	0x3c83bef2	0.01608226
127	0xbc7c4d58	-0.0153993
128	0x41345f65	11.27329
129	0x3f89bc27	1.0760545
130	0xbe20f4ce	-0.15718386
131	0xbcf405a8	-0.029787853
132	0x41216a85	10.088506
133	0x40b48a4d	5.6418824
134	0xbdd67079	-0.10470671
135	0xbb14fec6	-0.0022734865
136	0xc0815c65	-4.0425286
137	0xc027dd45	-2.6228802
138	0x3f38c41e	0.7217425
139	0xbcce8e58	-0.02521436
140	0xc06bcdfa	-3.6844468
141	0xbfba01f4	-1.4531846
142	0x406cb677	3.6986368
143	0xbf23a751	-0.6392718
144	0x4102f109	8.183846
145	0x409595c8	4.674534
146	0xbedd9ee6	-0.43285292
147	0x3f225dc2	0.63424313
148	0x3ee934a0	0.45547962
149	0xbecafcf2	-0.39646107
150	0x3e00da88	0.12583363
151	0xbe5c3978	-0.21506298
152	0xc0e53cd9	-7.1636777
153	0xc06ffad0	-3.7496834
154	0x3c01eb5e	0.007929651
155	0x3c856a2f	0.016285984
156	0x409e0ebc	4.9392986
157	0x3fadd8b6	1.358176
158	0x3fc65e48	1.5497522
159	0xbbb1f786	-0.0054311184
160	0x40ad4a23	5.4153
161	0x40861c86	4.190982
162	0x4009afa6	2.1513457
163	0xbc716785	-0.014734154
164	0xbe93b4cb	-0.28848872
165	0xbfbe8c71	-1.4886609
166	0xc084655e	-4.137374
167	0x3f17fa0c	0.59365916
168	0xbfccf607	-1.6012582
169	0xc06a0e95	-3.65714
170	0xbf974ab7	-1.1819676
171	0xbced78f8	-0.028988346
172	0x40a74653	5.2273345
173	0x402ae1e5	2.6700375
174	0xbeef3870	-0.46722746
175	0xbeaacae5	-0.3335792
176	0xc0d6808c	-6.7031918
177	0xc02e06fc	-2.7191763
178	0x400fe8be	2.2485805
179	0x3c4e8efa	0.01260733
180	0x40ae6d73	5.4508605
181	0x403e6f05	2.975526
182	0xbe94f1a5	-0.2909061
183	0x3e542d68	0.20720446
184	0x415c0f33	13.753711
185	0x40efc64a	7.492955
186	0xbf1e4da2	-0.6183721
187	0xbca4d5ad	-0.02012142
188	0xbe10098b	-0.1406614
189	0x3d5f6520	0.0545398
190	0xbd9396a8	-0.0720647
191	0xbe0b1eb3	-0.1358593
192	0x40d4d3d3	6.6508574
193	0x40a8000a	5.250005
194	0xbf4ca3dc	-0.7993753
195	0x3dd719e8	0.10502988
196	0xc083edcb	-4.1227775
197	0xc12a1fdf	-10.632781
198	0x3efa1bff	0.48849484
199	0x3e788b99	0.24272002
200	0xc07aba5b	-3.9176242
201	0xbffe341b	-1.9859651
202	0x3eee827e	0.46583933
203	0x3e49e020	0.19714403
204	0xc0824fb2	-4.0722284
205	0xc01c7c34	-2.4450808
206	0x3dce1b4b	0.100637995
207	0xbf8c50bf	-1.0962142
208	0xc00817aa	-2.1264443
209	0xbf428702	-0.75987256
210	0x3fab3029	1.3374072
211	0x3f1b9593	0.6077511
212	0xc12040a8	-10.015785
213	0xc0b43fca	-5.6327868
214	0x3c08f343	0.008358779
215	0xbc007388	-0.007840045
216	0xc10733c7	-8.450141
217	0xc0eeade7	-7.4587283
218	0x3f7cf494	0.98810697
219	0x3e602c38	0.21891868
220	0xc1181b44	-9.506657
221	0xc0a2734a	-5.0765734
222	0x3c03b664	0.008039091
223	0x3bdb0d50	0.0066849366
224	0xc0543a5d	-3.3160622
225	0xbff73373	-1.9312576
226	0x3e26da82	0.16294292
227	0x3d7d00c6	0.061768316
228	0xc11521c7	-9.320746
229	0xc0accc87	-5.3999667
230	0x3c3ab89d	0.011396554
231	0xbc3295c6	-0.010899967
232	0x412b2703	10.697024
233	0x40b2650f	5.5748363
234	0xbdd33a8e	-0.10313903
235	0xbb2966a1	-0.0025848525
236	0xc11a8533	-9.657519
237	0xc0ac23a6	-5.3793516
238	0x3c8f598b	0.017498752
239	0xbc9dc6b5	-0.01925979
240	0xbf0e2db3	-0.5553848
241	0xc0c0983c	-6.0185833
242	0x3ea85880	0.3288002
243	0xbd24ebe9	-0.040264044
244	0xc1129a32	-9.162645
245	0xc094762a	-4.6394243
246	0x3c143aee	0.009047253
247	0x3ccd62ab	0.025071463
248	0x406b9a9e	3.681312
249	0x4065d3ea	3.5910592
250	0xc00cb6a8	-2.1986485
251	0x3e3965be	0.18105218
252	0xc0f95a96	-7.792308
253	0xc038bdad	-2.886577
254	0x3e0613f3	0.13093548
255	0x3dd0cfef	0.1019591

network.0.bias f4 [64]
0	0x3f35081d	0.70715505
1	0xbeccbd63	-0.3998824
2	0x3f9ce95c	1.2258716
3	0x3f3168bd	0.6930044
4	0x3f286799	0.6578308
5	0xbe461113	-0.19342451
6	0x3f2347f7	0.63781685
7	0xbea068bf	-0.31329915
8	0x3f43323d	0.7624853
9	0x3f3475d9	0.7049232
10	0x400e2bd3	2.2214248
11	0x3e9d648f	0.30740783
12	0x3fa1d2ca	1.2642453
13	0xbed5c18c	-0.41749227
14	0x3f8dd2a3	1.1079906
15	0xbefe22c2	-0.49635893
16	0x3fd1f7f3	1.6403793
17	0x3e952b13	0.29134426
18	0x40200572	2.5003324
19	0xbe7d443f	-0.24733065
20	0xbe500535	-0.20314486
21	0x3f2bfdde	0.67184246
22	0x3f12eb60	0.57390404
23	0x3e4e0294	0.20118171
24	0x3f334d72	0.7004005
25	0xbe18c18f	-0.14917587
26	0x400ec287	2.230623
27	0xbe559960	-0.20859289
28	0xbe743ec4	-0.23852068
29	0xbe2d0155	-0.1689504
30	0xbef34720	-0.47515202
31	0x3f194460	0.59869957
32	0x3f5cf080	0.86304474
33	0x3f27e452	0.65582764
34	0xbdf6431f	-0.12024521
35	0x3f6dd27e	0.9289931
36	0xbdab7d0a	-0.08373459
37	0xbef91ffe	-0.4865722
38	0x3ef838d1	0.48480847
39	0x3e38db18	0.18052328
40	0xbf2f82e7	-0.68559116
41	0x401509ad	2.3287156
42	0x3d2dd81c	0.042442426
43	0x3da585f3	0.080821894
44	0x3ebbf800	0.36712646
45	0xbd390126	-0.04516711
46	0xbf211198	-0.6291747
47	0xbe814d7c	-0.25254428
48	0xbe763437	-0.24043356
49	0x400486b3	2.0707214
50	0x3e85bdf4	0.26121485
51	0x3edfbb73	0.436977
52	0x3b8465e5	0.004040467
53	0x3f268667	0.6504883
54	0x3fc8f6f6	1.5700366
55	0x3f20bfe8	0.62792826
56	0xbe5406cf	-0.20705722
57	0x3f1b84f3	0.6074974
58	0x3f307b2f	0.68937963
59	0x3f1f1673	0.6214363
60	0x400a1417	2.1574762
61	0x3f1f28c7	0.62171596
62	0x3f4803c5	0.7813075
63	0x3fd1bd5f	1.6385916

network.2.weight f4 [64, 64]
0	0x3f274015	0.65332156
1	0xbca3f922	-0.020016257
2	0xbf18e9e0	-0.59731865
3	0x3f68a43f	0.9087562
4	0x3f24f226	0.6443199
5	0xbfdab4e0	-1.7086449
6	0x3f7bacd3	0.98310584
7	0xbfd57fd2	-1.6679633
8	0x3f22d21c	0.6360185
9	0x3f415b99	0.7553039
10	0x3ef5c2ea	0.4800027
11	0x3fc190b2	1.5122283
12	0xbd858d4c	-0.06521091
13	0xbdcd5e8c	-0.10027799
14	0x3f4ec972	0.8077613
15	0xbdbe6c62	-0.09298016
16	0x3f587e28	0.845675
17	0x3ffa438b	1.9551862
18	0x3ee13dae	0.4399237
19	0x3f0eb1c9	0.5574003
20	0xc0017657	-2.022848
21	0x3f415665	0.7552245
22	0x3f85e9cd	1.0461975
23	0x3f532638	0.8248019
24	0x3f2063d7	0.62652344
25	0x3f30ffe5	0.69140464
26	0x3ec02f46	0.37536067
27	0xc00264c2	-2.0373998
28	0xc00ecbe4	-2.2311945
29	0xbfced6e0	-1.6159325
30	0x3d0d1ccc	0.03445129
31	0x3f972464	1.180798
32	0x3f0d04b8	0.55085325
33	0x3f5a2bbb	0.8522298
34	0xc00835e2	-2.1282887
35	0x3e03624a	0.12830463
36	0xbda19afb	-0.07890888
37	0xbc3d4990	-0.011553183
38	0x3f9d68f1	1.229765
39	0xc0e5e3da	-7.184064
40	0xc127308d	-10.449353
41	0x3e88e406	0.26736468
42	0x40032b7f	2.0495298
43	0xc0b5ed20	-5.685196
44	0x3fe40ed3	1.7817024
45	0xc0cfdaaa	-6.4954424
46	0xc20572bb	-33.36204
47	0xbdd78fe0	-0.10525489
48	0xc0ee9081	-7.4551396
49	0x3f408ea9	0.7521768
50	0xbfe43790	-1.7829456
51	0x3f865389	1.0494243
52	0xbe55d7b8	-0.20883071
53	0x3f87f163	1.062054
54	0x3f40bc4f	0.75287336
55	0x3f767e8a	0.96286833
56	0x40137237	2.3038461
57	0x3fa27dd0	1.2694645
58	0x3f61514b	0.8801467
59	0x3f837fec	1.0273414
60	0x3f1586fe	0.58409107
61	0x3f7dcd58	0.99141455
62	0xbe1c3ff9	-0.15258779
63	0x3f4a8c3a	0.7912022
64	0x3fabf025	1.3432661
65	0x3dfed6b1	0.12443293
66	0xbdc292b4	-0.09500638
67	0x3fadf6c4	1.3590932
68	0x3f9f1a8d	1.2429978
69	0xbfd38217	-1.6524075
70	0x3f5bca45	0.85855514
71	0xbfcb0c91	-1.586321
72	0x3f977d1a	1.1835053
73	0x3fb53042	1.4155352
74	0x3f0d2523	0.5513479
75	0x3f807c41	1.0037919
76	0xbe6326f3	-0.22182827
77	0x3c5d8350	0.013520077
78	0x3f8b4bf6	1.0882556
79	0xbd6c6580	-0.057713985
80	0x3f3ad59e	0.72982204
81	0x3fd9f29f	1.7027167
82	0x3e40df43	0.18835168
83	0x3ee2eed3	0.44322833
84	0xbfff5350	-1.99473
85	0x3fa7d1ab	1.311086
86	0x3f5aff4b	0.85545796
87	0x3fa2c066	1.2714965
88	0x3fabcd01	1.3421937
89	0x3f2a9d16	0.66645944
90	0xbe555aee	-0.20835468
91	0xc002a56c	-2.0413465
92	0xc00315ff	-2.0482175
93	0xbfd236dc	-1.6422992
94	0x3db680c4	0.08911279
95	0x3f6146c9	0.87998635
96	0x3ee90bef	0.45516917
97	0x3fc24544	1.5177388
98	0xc00517fd	-2.0795891
99	0x3f013fd7	0.50488037
100	0x3f31f835	0.6951936
101	0xbd3b44fc	-0.045720086
102	0x3f82c5e3	1.021664
103	0xbe2ce3dc	-0.16883796
104	0xbfa454c1	-1.2838365
105	0xbdaa5fbf	-0.08319043
106	0x3fb1bf11	1.3886434
107	0xbf3bec68	-0.734076
108	0x3fa69920	1.301548
109	0xbf4dbdc6	-0.80367696
110	0xbfbcfe34	-1.4765077
111	0xbcd27248	-0.02568926
112	0xbfaf0881	-1.367447
113	0x3eb4e435	0.35330358
114	0xbff2fa35	-1.8982607
115	0x3f2d8792	0.6778499
116	0x3e58ddee	0.2117841
117	0x3f6efda9	0.93355805
118	0x3ef6e5a3	0.48222074
119	0x3f5e71eb	0.86892575
120	0x3ffa9cdb	1.9579118
121	0x3f938091	1.152361
122	0x3fa5fb1d	1.2967259
123	0x3f8baa36	1.0911319
124	0x3edd3384	0.43203366
125	0x3f47b3fa	0.78009
126	0xbeb75a1a	-0.3581093
127	0x3eed4bfe	0.4634704
128	0x3f758ef9	0.95921284
129	0xbdb875bb	-0.0900683
130	0xbdf1a23c	-0.11798522
131	0x3f65fa47	0.8983502
132	0x3f227212	0.6345531
133	0xc23d46b1	-47.319035
134	0x3f6e73af	0.9314527
135	0xc20cb5e1	-35.177616
136	0x3ef530be	0.4788875
137	0x3f9215f1	1.1412946
138	0x3f8d82f6	1.1055591
139	0x3fed11c0	1.8521042
140	0x39d94a7a	0.00041444955
141	0x3cf5e8a0	0.03001815
142	0x3fae7933	1.3630737
143	0xbdb50340	-0.088385105
144	0x3fb55b0a	1.4168408
145	0x406b90c0	3.6807098
146	0x3f1cd61f	0.6126422
147	0xbf54833d	-0.83012754
148	0xc1537cc7	-13.217963
149	0x3fb62161	1.4228936
150	0x3f81559b	1.010425
151	0xc04365a9	-3.0530798
152	0x3f6680bb	0.9004018
153	0x3ef3f5e4	0.47648537
154	0x3e93af84	0.28844845
155	0xc20bc71e	-34.94445
156	0xc1f3ecd3	-30.490637
157	0xc235dd6b	-45.46623
158	0xbd237fc0	-0.039916754
159	0x3f503fa8	0.8134713
160	0x3f3a2a33	0.7272064
161	0x3f61d95a	0.8822228
162	0xc166d5d5	-14.427205
163	0x3edcf456	0.43155164
164	0xbed4323e	-0.41444582
165	0xbda6abf6	-0.08138268
166	0x3f821df9	1.0165397
167	0xc101be2c	-8.108929
168	0x3ecd9773	0.4015461
169	0x3f2c1540	0.67219925
170	0x3fb199cd	1.3875061
171	0xc0f67209	-7.7014203
172	0x407c6728	3.9437962
173	0xc0e9bf36	-7.304591
174	0xc1f12c94	-30.146767
175	0x3c902426	0.017595362
176	0xc109edc9	-8.620553
177	0x3f81cb41	1.0140153
178	0xc1451943	-12.318667
179	0x3f22e40a	0.6362921
180	0xbe0190cb	-0.1265289
181	0x3eef80f7	0.4677808
182	0x3f8ea8e0	1.1145287
183	0x3f663a85	0.89933044
184	0xc13ea884	-11.9161415
185	0x3f1b0d58	0.60567236
186	0x3f62fb45	0.88664657
187	0x3ee8cf27	0.45470545
188	0x3f4f3bdc	0.80950713
189	0x3f72328e	0.9460839
190	0x3d2dfec8	0.042479306
191	0x3f3a2dd4	0.7272618
192	0xbf8b6251	-1.0889379
193	0xbdd524db	-0.1040742
194	0x3f932491	1.1495534
195	0xbfacdf5f	-1.3505667
196	0xbf4e77c7	-0.80651516
197	0xbf09563d	-0.53647214
198	0xbfcf6e56	-1.6205547
199	0x407864ee	3.8811603
200	0xbf6e43e0	-0.9307232
201	0xbf8e53bf	-1.1119307
202	0x3e217267	0.15766297
203	0x3fac8d95	1.3480707
204	0x3fb42497	1.4073666
205	0xbdde4304	-0.10852626
206	0xbf8f5ba0	-1.1199837
207	0x3cc14f48	0.023597375
208	0xbf89f665	-1.0778319
209	0x3f5d19a5	0.86367255
210	0x3e847f8d	0.25878564
211	0x3fd22a51	1.6419164
212	0x4083a5f8	4.11401
213	0xbf9f0fa2	-1.2426646
214	0xbfd50798	-1.6642942
215	0x3ed1a470	0.40945768
216	0xbfa8e873	-1.3195938
217	0xbfe53312	-1.790621
218	0x3f67fd13	0.90620536
219	0x40aa610d	5.324347
220	0x40c1dafd	6.057982
221	0x3f9bb3d7	1.2164258
222	0xbce344f0	-0.027742833
223	0xbff20436	-1.8907535
224	0x3d3d246f	0.046177324
225	0xbf9c22c9	-1.2198116
226	0x40ab39d7	5.3508105
227	0x4006494b	2.0982234
228	0x3e859b39	0.26094988
229	0xbd30d1e8	-0.043168932
230	0xc0174457	-2.3635461
231	0x401e6247	2.4747484
232	0x3ffb23d5	1.962031
233	0x3f8495b2	1.0358183
234	0x3e0fbad5	0.14036115
235	0x4014245d	2.3147194
236	0x3fb2ade7	1.3959321
237	0x401f5473	2.4895294
238	0x3fcb686e	1.5891244
239	0x3dcd5905	0.10026745
240	0x407de0c0	3.9668427
241	0xbe683b39	-0.22678842
242	0x404bb2bc	3.182784
243	0xbd89732a	-0.06711419
244	0x3eaa174c	0.332209
245	0xbfe0daac	-1.7566733
246	0xbf7cbe43	-0.98727816
247	0xbfd7a173	-1.6846145
248	0xc1dfffb0	-27.999847
249	0xc000ebc1	-2.0143893
250	0xbf96d5d2	-1.1784003
251	0xc0047263	-2.0694816
252	0xbe45175b	-0.1924719
253	0xbfa07535	-1.2535769
254	0x3fbec83e	1.4904859
255	0xbe9bab22	-0.30404

network.2.bias f4 [64]
0	0x3f0b81c5	0.5449489
1	0x3e2fca28	0.1716696
2	0x3f548200	0.83010864
3	0x3e9afae0	0.30269527
4	0xbdf8b4ae	-0.12143837
5	0x3ebf302a	0.37341434
6	0x3f9e4052	1.2363379
7	0x3eaf7b1d	0.34273615
8	0x3f4890e9	0.78346115
9	0x3eae30c2	0.34021574
10	0x3c646868	0.013940908
11	0x3fc8e07d	1.5693508
12	0x3fa31b4c	1.2742705
13	0x3f5e0dce	0.86739814
14	0x3e441217	0.19147526
15	0x3ede4b9b	0.43417057
16	0xbd77474d	-0.060370732
17	0x3ebae219	0.36500624
18	0xbe0f0d43	-0.13969903
19	0x3eaa0368	0.33205724
20	0x3ed35cc9	0.41281727
21	0x3dba773b	0.09104773
22	0x3ed73762	0.4203444
23	0x3f12c639	0.57333714
24	0x3ebeb5cd	0.37248078
25	0x3d33f699	0.043936346
26	0x3f1d86e2	0.6153394
27	0x3ea3565b	0.31901821
28	0x3e987837	0.29779217
29	0x3e9fc3de	0.31204122
30	0x3f2773a7	0.65410846
31	0x3ebc20d0	0.36743784
32	0xbdcd314e	-0.1001917
33	0x3e89931c	0.26870048
34	0x3e8dea86	0.2771799
35	0x3ebc24a4	0.36746705
36	0xbdcb9672	-0.099408045
37	0x3e19c1ee	0.15015385
38	0x3d954a9f	0.072896235
39	0x3e623930	0.22092128
40	0xbe044397	-0.12916408
41	0x3f8b9c4f	1.0907077
42	0x3f0ddbaa	0.55413306
43	0x3f99be35	1.2011172
44	0x3ecfee63	0.40611562
45	0x3ec1ca03	0.37849435
46	0xbd33a4f4	-0.043858483
47	0x3ec2b4ed	0.3802866
48	0xbdc42d4f	-0.095789544
49	0x3eb5e329	0.35524872
50	0x3e8ff5bf	0.28117177
51	0x3e95dfa6	0.29272193
52	0x3ed9d999	0.42548826
53	0x3ebca4a5	0.36844364
54	0x3eb7ce86	0.35899752
55	0x3e61c100	0.2204628
56	0x3e7768fb	0.2416114
57	0x3e3aef7f	0.18255423
58	0x3f9c779d	1.2224003
59	0xbd4bac08	-0.04972461
60	0x3eaeecb6	0.3416497
61	0x3e36625b	0.17810957
62	0x3f935b1a	1.1512177
63	0x3c08b17b	0.008343096

network.4.weight f4 [11, 64]
0	0x400aff99	2.1718504
1	0x3f8fc811	1.123293
2	0x40b8100f	5.7519603
3	0xc12be7d7	-10.744102
4	0xbd9a57bc	-0.07536265
5	0x4013b832	2.3081174
6	0xc00fff43	-2.249955
7	0x3f500c1d	0.81268483
8	0xbf85aa21	-1.0442544
9	0x3fbcaa99	1.4739562
10	0xc04b9c28	-3.181406
11	0xc07bd5bc	-3.9349203
12	0xc0afc2cf	-5.4925303
13	0x3f91c978	1.1389608
14	0x3fa00714	1.250216
15	0x3fd299ab	1.6453146
16	0xbd38e5d5	-0.04514106
17	0x3f8b4ec7	1.0883416
18	0x3d065b46	0.03280189
19	0x3fcb93fc	1.5904536
20	0x3fd58a72	1.6682875
21	0xbff56442	-1.9171221
22	0x3fb73792	1.4313834
23	0x4000afbd	2.0107262
24	0x3fcad564	1.5846372
25	0xbca924ab	-0.020647367
26	0xbfba78dc	-1.4568133
27	0x3fac5872	1.3464491
28	0x3f6e4d7d	0.9308699
29	0x3fac525a	1.3462632
30	0x40123bd6	2.284902
31	0x3fa697a7	1.3015031
32	0xbcec3e84	-0.028838404
33	0x3faa2d38	1.329505
34	0x3f907a88	1.1287394
35	0xc1215055	-10.082112
36	0xbdb37b5a	-0.08763762
37	0x3f6edcac	0.9330547
38	0x3f99c958	1.201457
39	0x3fbf8d2c	1.4964957
40	0xbdf2a322	-0.11847521
41	0xbf9881e9	-1.1914645
42	0x400510ba	2.079146
43	0xbffae4cd	-1.9601074
44	0x3ff933cf	1.9468936
45	0x3fd8c21b	1.6934236
46	0x3aad2e00	0.0013212562
47	0x3f9f5b50	1.2449741
48	0xbcc39a01	-0.023877146
49	0x3fa1172b	1.2585195
50	0x3fabbf66	1.3417785
51	0x3fca79b0	1.5818386
52	0x3f88a6fe	1.0675962
53	0x3fb3b203	1.40387
54	0x3fae06e2	1.359585
55	0x4052687c	3.2876272
56	0x3f9de821	1.2336465
57	0xc10b29b2	-8.6976795
58	0xbfcff266	-1.6245849
59	0x3d5aa56c	0.053380415
60	0x40092ab7	2.143232
61	0x3fc41749	1.5319606
62	0xc02449af	-2.5669973
63	0xbcccf102	-0.025017265
64	0x40019e9e	2.0253062
65	0x3fa72b70	1.3060131
66	0x40cafccc	6.343359
67	0xc10eb078	-8.918083
68	0xbd27fcfc	-0.04101275
69	0x4001627e	2.0216365
70	0xc013ca47	-2.309221
71	0x3fa40dc6	1.2816703
72	0xbf9e9c93	-1.2391533
73	0x3fab0104	1.3359685
74	0xc05fd181	-3.497162
75	0xc085f67d	-4.186339
76	0xc0a39deb	-5.113027
77	0x3c6b5431	0.0143633345
78	0x3f951dbe	1.1649702
79	0x3fcff53b	1.6246713
80	0xbd950287	-0.07275873
81	0x3fccccdf	1.6000022
82	0x3d9fbeea	0.07800086
83	0x3f9006d5	1.1252085
84	0x3ff44d4a	1.9086087
85	0xc021ed0d	-2.5300934
86	0x3fb29191	1.3950673
87	0x3fe4f897	1.7888364
88	0x40118545	2.2737591
89	0xbd91486d	-0.07093892
90	0xbf8cc4a9	-1.0997516
91	0x3f9e41fd	1.2363888
92	0x3fd1143b	1.6334299
93	0x3fb364cd	1.4015137
94	0x40084c92	2.1296735
95	0x3f917a53	1.1365455
96	0xbd24a3ae	-0.04019516
97	0x3faab381	1.333603
98	0x3fa875d3	1.3160957
99	0xc0ff55b8	-7.9792137
100	0xbcfd44fc	-0.030916683
101	0x3f6cf141	0.92555624
102	0x3fb4bfb4	1.4121003
103	0x3f989115	1.1919276
104	0x3dcdcc5e	0.100487456
105	0xbfb1d380	-1.389267
106	0x3ffb32bc	1.9624858
107	0xc007559a	-2.1145997
108	0x3feb80ac	1.8398643
109	0x3fe789cd	1.8088928
110	0x3dec8a5a	0.11549826
111	0x3fbd5b5d	1.4793507
112	0xbdd63686	-0.10459618
113	0x3f9d7e63	1.2304195
114	0x3fa23f23	1.2675518
115	0x3f8d3fc7	1.1035088
116	0x3fb0f2ee	1.3824136
117	0x3fb99e11	1.4501363
118	0x3fadfaf5	1.3592211
119	0x40228a4d	2.5396912
120	0x3f7ddd0f	0.99165434
121	0xc0ebd5b7	-7.369838
122	0xbff65d9c	-1.9247317
123	0x3de0857e	0.109629616
124	0x3fca439f	1.5801886
125	0x3f961c6e	1.1727426
126	0xbfd82649	-1.6886684
127	0xbd21cb1f	-0.039500352
128	0x4006c37e	2.105682
129	0x3f96699b	1.1750978
130	0x410678d4	8.404499
131	0xc0f323c2	-7.598115
132	0xbd512770	-0.051063
133	0x40008996	2.0083976
134	0xc02089ba	-2.5084062
135	0x3fc0d753	1.5065712
136	0xbfaa67c6	-1.3312919
137	0x3f86388e	1.0486009
138	0xc03f7d51	-2.9920237
139	0xc067faec	-3.62469
140	0xc081e7c1	-4.0595403
141	0xc00f9861	-2.2436755
142	0x3f99d27e	1.2017362
143	0x3fd26055	1.6435648
144	0xbbfa234b	-0.007633602
145	0x3fbef22f	1.4917659
146	0x3da518bc	0.08061358
147	0x3f71af48	0.9440808
148	0x3fcc3516	1.59537
149	0xbf85e586	-1.046067
150	0x3f9f99ba	1.2468789
151	0x400d4032	2.2070432
152	0x402eb886	2.7300124
153	0xbcfe5e4e	-0.031050827
154	0xbf371518	-0.7151656
155	0x3fbbdd99	1.4677001
156	0x3fd2886b	1.6447881
157	0x3fb30bb2	1.3987944
158	0x3ffa3168	1.9546328
159	0x3fb422e8	1.4073153
160	0xbd5a9725	-0.0533668
161	0x3fae38ff	1.3611144
162	0x3fc841ee	1.564512
163	0xc08050b4	-4.0098515
164	0x3ce8a95c	0.02840107
165	0x3f2db19a	0.67849123
166	0x3f6af4be	0.91779697
167	0x3fb05b71	1.3777906
168	0x3d956da7	0.07296305
169	0xc00b1bfe	-2.1735835
170	0x3ffb7271	1.96443
171	0xc0135192	-2.3018537
172	0x3fc1e5a3	1.5148205
173	0x3fd28c1f	1.6449012
174	0xbccb6fc8	-0.024833575
175	0x3fc3287a	1.5246727
176	0x3dd123ec	0.1021193
177	0x3f91db7e	1.1395109
178	0x3f86d303	1.0533146
179	0x3f7b1395	0.98076755
180	0x3fb395e3	1.4030117
181	0x3f8c6a32	1.0969908
182	0x3f80626a	1.0030034
183	0x40203f39	2.5038588
184	0x3f32d1c9	0.69851357
185	0xc0789e87	-3.8846757
186	0xc005181f	-2.0795972
187	0x3d5ada44	0.05343081
188	0x3fc9e13b	1.577186
189	0x3f876d5e	1.0580251
190	0xc02060e2	-2.5059133
191	0x3db8b871	0.090195544
192	0x3ffdcd08	1.9828196
193	0x3f9ae993	1.2102531
194	0x40963931	4.6944814
195	0xc1190f2a	-9.566202
196	0x3df6fd24	0.120600015
197	0x4007dce9	2.1228583
198	0xc040df18	-3.0136166
199	0x3fca18c5	1.5788809
200	0xbfb545ab	-1.4161886
201	0x3f92110b	1.1411451
202	0xc070dde8	-3.763544
203	0xc089059d	-4.281935
204	0xc09ef718	-4.967663
205	0xc00becd7	-2.1863306
206	0x3f9ba5ba	1.2159951
207	0x3ff2ebcc	1.897821
208	0xbd97695c	-0.073931426
209	0x3fe26b2d	1.7688957
210	0xbdd788c7	-0.10524135
211	0x3f9e9bb2	1.2391264
212	0x4001fe3c	2.0311422
213	0xc01f86de	-2.4926066
214	0x3fa0e097	1.2568539
215	0x3fd77222	1.6831706
216	0x4003299b	2.0494144
217	0xbd1f1c46	-0.038845323
218	0x3be43096	0.0069637997
219	0x3fa0acc8	1.2552729
220	0x3fe18656	1.7619121
221	0x3fa5d335	1.295508
222	0x3ff8d75f	1.9440726
223	0x3f93d1ef	1.1548442
224	0x3db8e7be	0.09028576
225	0x3f98dc4e	1.1942232
226	0x3f91997f	1.1374968
227	0xc09d6579	-4.918637
228	0xbd36487b	-0.044502717
229	0x3fa715f7	1.3053578
230	0x3fd2c49c	1.646625
231	0x3f9a6306	1.206147
232	0xbe064777	-0.13113199
233	0xc00e011d	-2.218818
234	0x3ff4fbbe	1.9139326
235	0xbfedf4b7	-1.8590306
236	0x4009963c	2.1497946
237	0x40047ad9	2.069998
238	0xbce736c8	-0.028224364
239	0x3fa04874	1.2522111
240	0x3dfe68a0	0.124222994
241	0x3fa4b6f9	1.2868339
242	0x3f812252	1.0088599
243	0x3f9cc137	1.2246464
244	0x3fa05f6c	1.252912
245	0x3fa346ff	1.2756041
246	0x3f99e737	1.2023686
247	0x40073dc4	2.1131449
248	0x3fa6efc2	1.3041918
249	0xc09d22c8	-4.9104958
250	0xbffa64e9	-1.9562045
251	0x3dfd2ac8	0.123616755
252	0x3ff034f5	1.8766161
253	0x3fa71d07	1.3055733
254	0xbfec6a7a	-1.8469994
255	0xbd7f9a89	-0.062403236

network.4.bias f4 [11]
0	0x3dabb061	0.08383251
1	0x3f475d7b	0.77877015
2	0x3f91c407	1.1387948
3	0xbf2591a6	-0.64675367
4	0xbeeb8dac	-0.46006525
5	0x3dc8028e	0.09766112
6	0x3f377aeb	0.7167193
7	0x3fa4d6e3	1.2878078
8	0x3f0b4329	0.54399353
9	0x3dfc69dc	0.123248786
10	0x3e3a58c0	0.18197918
