pendulum_rl_best_model.pt (torch, 24137 bytes, 6 tensors)

network.0.weight f4 [64, 4]
0	0x40f287ad	7.579062
1	0x4093fd1c	4.624647
2	0xbc00dcef	-0.007865175
3	0x3c1a342a	0.009411851
4	0xc04c1cec	-3.1892653
5	0xbfbcbd83	-1.4745334
6	0xbf9864b2	-1.190573
7	0x3eece979	0.46271876
8	0x40cd9014	6.4238377
9	0x408e01f2	4.4377375
10	0x3f0216c8	0.5081601
11	0x3d045365	0.032306094
12	0x41055d7e	8.335325
13	0x40b15697	5.54182
14	0x3d909a28	0.07060653
15	0xba81a62e	-0.0009891444
16	0x410755a7	8.458411
17	0x40a05b5e	5.011153
18	0xbebbd93f	-0.36689183
19	0x3d01b0b9	0.031662676
20	0xc0274651	-2.6136668
21	0xbf8923c8	-1.0714045
22	0xbe49f8f5	-0.19723876
23	0x3ee600df	0.4492254
24	0xc0f4a579	-7.6451993
25	0xc0a509d5	-5.15745
26	0x3e641911	0.22275187
27	0xbcf2a02c	-0.029617392
28	0xc03d8614	-2.9613085
29	0xc048d04c	-3.1377134
30	0x3e5df375	0.21674903
31	0xbdee546f	-0.11637198
32	0x40ec507b	7.3848243
33	0x40759885	3.837434
34	0xbcda655c	-0.02665966
35	0x3bd92153	0.006626287
36	0x40f447f4	7.6337833
37	0x40b6f834	5.717798
38	0x3d6f1669	0.05837098
39	0xbc27f722	-0.010251792
40	0x3e4a4e95	0.19756539
41	0xbe3327e5	-0.17495687
42	0x4007aca6	2.1199126
43	0x3edff7c4	0.43743718
44	0x3f8f7143	1.120644
45	0xbf8846ca	-1.0646603
46	0x3f04c65f	0.5186519
47	0x3efcf14b	0.49402842
48	0x3ff42955	1.9075114
49	0x3f921cc6	1.1415031
50	0xbfc8b1b6	-1.5679233
51	0xbf3e4dfc	-0.74337745
52	0xbec45b9c	-0.38351142
53	0x3ed20ed6	0.41026944
54	0x3e1378d8	0.14401567
55	0x3e5413cc	0.20710677
56	0x3fd80c1d	1.6878697
57	0xbf07a0f3	-0.52979964
58	0x3d8c4ded	0.06850801
59	0xbeafc42c	-0.34329355
60	0x3d00f320	0.031481862
61	0xbeaebaf4	-0.3412701
62	0x3e1de050	0.154176
63	0xbe3052e0	-0.17219114
64	0xbef05891	-0.4694257
65	0xc00478e4	-2.0698786
66	0xbeeb5ad2	-0.45967728
67	0xbe1432dc	-0.14472526
68	0xc0ea451b	-7.3209357
69	0xc09f3b22	-4.9759684
70	0x3ec12ec9	0.37731007
71	0xbaad7a28	-0.0013235258
72	0x3cf7841f	0.030214367
73	0xbfb6541c	-1.4244418
74	0xc00728d6	-2.1118674
75	0x3db9c173	0.09070101
76	0xc0f77bac	-7.7338467
77	0xc05fb38a	-3.4953332
78	0x3f219072	0.6311103
79	0x3d6f04c9	0.058354173
80	0xc0616f42	-3.5224156
81	0xc02ce2ab	-2.7013347
82	0x3f4adcb2	0.79243004
83	0xbcb900b7	-0.022583349
84	0x40d3cf24	6.6190357
85	0x400654d3	2.0989273
86	0x3e82ca96	0.25545186
87	0xbd00ab37	-0.031413283
88	0xc0e347a5	-7.1024957
89	0xc094f2c9	-4.654637
90	0x3ebd2d07	0.36948416
91	0xba599ce5	-0.0008301272
92	0x40155ef8	2.3339214
93	0x403fad9f	2.994972
94	0x3f2bbf12	0.67088425
95	0xbf0eb37a	-0.5574261
96	0x40fbc154	7.8673496
97	0x40992135	4.7853036
98	0x3e09ae7a	0.13445464
99	0xbc039339	-0.008030706
100	0xc03b87eb	-2.9301708
101	0xbf90aa48	-1.1301966
102	0x3e07dc30	0.13267589
103	0xbe918f31	-0.2842956
104	0xc0d89ed7	-6.7693896
105	0xc097579b	-4.729444
106	0x3ea874d0	0.3290162
107	0xbb85ea8c	-0.004086798
108	0xc05d78e1	-3.4605029
109	0xbf9c1811	-1.2194844
110	0xbf24b72e	-0.6434201
111	0x3b94577d	0.004527031
112	0xc00e094e	-2.219318
113	0xbff4da0d	-1.9129044
114	0x3e871007	0.26379415
115	0xbbeabff2	-0.007163995
116	0xc018279b	-2.3774173
117	0xbfe32687	-1.7746133
118	0x3e488cb0	0.19584918
119	0xb9fa11d6	-0.00047697005
120	0x3ab59e00	0.0013856292
121	0xbe3e8450	-0.1860516
122	0xbd0deaf0	-0.034647882
123	0xbead7924	-0.33881485
124	0xc0f9a482	-7.8013315
125	0xc08b1f7d	-4.347594
126	0xbc35ff45	-0.011108224
127	0xbcf9b1b2	-0.03048024
128	0x4102fc40	8.186584
129	0x404f0512	3.2346845
130	0xbdadd45d	-0.08487771
131	0xbbf96573	-0.0076109706
132	0xc113c8a0	-9.236481
133	0xc0bccdad	-5.900107
134	0xbc015089	-0.007892736
135	0xbcad8d53	-0.021185553
136	0xc0418d24	-3.0242395
137	0xbfd23144	-1.6421285
138	0x3e42cb00	0.19022751
139	0x3bf683c3	0.0075230314
140	0xc01fd479	-2.4973433
141	0xc0585b4f	-3.380573
142	0x3ef04bf8	0.4693296
143	0xbe5120a6	-0.2042261
144	0x40527e05	3.2889416
145	0x3fbff914	1.4997888
146	0x4013a464	2.3069086
147	0x3dfe912c	0.12430033
148	0x3ee934a0	0.45547962
149	0xbecafcf2	-0.39646107
150	0x3e00da88	0.12583363
151	0xbe5c3978	-0.21506298
152	0xc0de02bf	-6.937835
153	0xc095341c	-4.662611
154	0x3ebdfcb2	0.37106854
155	0x3c2d132f	0.010563656
156	0x4090f37f	4.5297236
157	0x400a1e55	2.1581013
158	0xbe137a1c	-0.1440205
159	0x3c8b1adb	0.01698058
160	0x410dd458	8.864342
161	0x40b8ad15	5.771128
162	0x3e4dbc96	0.20091471
163	0x3d0b2d19	0.033978555
164	0xbfdae66e	-1.7101572
165	0xbff3d17e	-1.9048307
166	0xbed177bf	-0.40911672
167	0x3eebb221	0.4603434
168	0xc0f558e2	-7.6671
169	0xc0af5892	-5.479562
170	0x3ea40a26	0.32038993
171	0xbc8c43cd	-0.017122174
172	0x40977156	4.732585
173	0x400259b7	2.0367258
174	0x3fb2c40c	1.3966079
175	0x3b9e332b	0.004827877
176	0xc0fe3e08	-7.945072
177	0xc081b50a	-4.0533495
178	0x3f0d8cc0	0.5529289
179	0x3bfc2808	0.007695202
180	0x4058669e	3.3812633
181	0x3fd0f8a4	1.6325879
182	0xbf0ea173	-0.557151
183	0xbcd13606	-0.025538456
184	0x40607154	3.506917
185	0x3fe9de9d	1.8271061
186	0xbef7fd2a	-0.48435336
187	0xbc173c35	-0.009230663
188	0xbf2e153e	-0.68001163
189	0x3f32a92b	0.6978938
190	0xbfc49cd8	-1.5360365
191	0x3c2b2b41	0.010447324
192	0x40626fa1	3.5380633
193	0x3fcec0c6	1.615258
194	0xbf00a5b3	-0.50252837
195	0x3d044436	0.032291614
196	0xc0ce6263	-6.44951
197	0xc0d16c38	-6.5444603
198	0x3f72925e	0.9475459
199	0x3eddbda0	0.43308735
200	0xc0537298	-3.3038692
201	0xbf7259ae	-0.9466809
202	0xbdeb2cfc	-0.114831895
203	0x3ce59c77	0.02802871
204	0xc0dcdb68	-6.901783
205	0xc0996c7e	-4.7944937
206	0x3eb2ad07	0.34897634
207	0xbb45269a	-0.0030082823
208	0xc0ea8d32	-7.3297358
209	0xc0836edd	-4.107283
210	0x3ee1f738	0.44133925
211	0x3cbef607	0.023310674
212	0xc0fc506f	-7.8848186
213	0xc09d48ba	-4.9151278
214	0x3edc9906	0.43085498
215	0x3c883e70	0.016631335
216	0xc03e1840	-2.97023
217	0xc032f260	-2.7960434
218	0xbf89e2e9	-1.0772372
219	0xbd52791f	-0.05138504
220	0xc0f93d23	-7.788713
221	0xc0952670	-4.660942
222	0xbc257516	-0.010098716
223	0xbcb4a604	-0.022051819
224	0xbeda1b7c	-0.42599094
225	0x3ebcb3c0	0.36855888
226	0x3f043f49	0.51659065
227	0xbd427fd0	-0.047485173
228	0xc0e99d62	-7.300462
229	0xc09e369d	-4.9441667
230	0x3df799a9	0.12089855
231	0xbcb8fb8f	-0.02258089
232	0x40d71864	6.7217274
233	0x40b866e6	5.762561
234	0x3f1d88a4	0.6153662
235	0x3c41679f	0.01180449
236	0xc0ef32b4	-7.4749393
237	0xc0aaf621	-5.342545
238	0x3e9d3617	0.3070533
239	0xbc6337de	-0.0138683
240	0x4110aa07	9.041511
241	0x40b01f7e	5.5038443
242	0xbf986f54	-1.1908975
243	0x3d47338e	0.04863315
244	0xc0e4f1db	-7.1545234
245	0xc09f669f	-4.981277
246	0x3ec06d37	0.37583324
247	0x3c93b068	0.018028453
248	0x3ff067d5	1.8781687
249	0x4039453d	2.894851
250	0xbff0bb87	-1.8807229
251	0xbf44cd8f	-0.7687616
252	0xc0bb4831	-5.8525624
253	0xc0e31f7c	-7.0975933
254	0x3db7d8e5	0.08976916
255	0xbefbe8b5	-0.4920098

network.0.bias f4 [64]
0	0x3f038bda	0.5138527
1	0xbeafef2a	-0.34362155
2	0x3edd7486	0.43252963
3	0x3f1636d2	0.586774
4	0x3f05ca3f	0.5226173
5	0xbe3fe983	-0.18741421
6	0x3f08687e	0.5328444
7	0x3e04d78a	0.12972847
8	0x3efed40c	0.49771154
9	0x3f0c0e6d	0.5470951
10	0x3fd393e6	1.652951
11	0x4018397e	2.378509
12	0x3eebf127	0.46082422
13	0xbed5c18c	-0.41749227
14	0x400e1d06	2.2205215
15	0xbefe22c2	-0.49635893
16	0x400829e2	2.1275563
17	0x3f010a37	0.5040621
18	0x401e89b6	2.4771552
19	0x3f4c391d	0.7977465
20	0x3f09289b	0.53577584
21	0x3f022528	0.50837946
22	0x3efabf86	0.48974246
23	0xbb1bf3b0	-0.0023796372
24	0x3f11044c	0.5664718
25	0x3e804efe	0.25060266
26	0x3eef2134	0.4670502
27	0xbe9df2f4	-0.3084942
28	0xbdc559d0	-0.09636271
29	0xbda867c6	-0.08222918
30	0xbef34720	-0.47515202
31	0x3f0d6f54	0.55248
32	0x3f1529d9	0.5826698
33	0x3f279a1c	0.6546953
34	0xbd9bc8b3	-0.0760664
35	0x3e958e47	0.29210111
36	0x3fa137de	1.2595174
37	0xbef91ffe	-0.4865722
38	0x3ef7af53	0.4837595
39	0xbe0f41cd	-0.13989945
40	0x3f1ca26b	0.6118533
41	0xbebc4395	-0.3677031
42	0x3f074a3f	0.52847666
43	0x3f3ec12c	0.74513507
44	0x3f2a84a1	0.66608626
45	0x3d3d6f4a	0.04624871
46	0x3e38575d	0.18002076
47	0xbf84b470	-1.0367565
48	0x3d3c36e8	0.0459508
49	0x3fc61615	1.5475489
50	0x3d2592cf	0.04042321
51	0x3ef353ff	0.4752502
52	0x3f09c208	0.53811693
53	0x3f0daa01	0.5533753
54	0x4026580d	2.5991242
55	0x3f0cfdd7	0.5507483
56	0xbf113dbb	-0.5673482
57	0x3f04b733	0.5184204
58	0x3f01cd71	0.50704104
59	0x3f0449a6	0.5167488
60	0x3f06f441	0.5271645
61	0x3f046a0b	0.5172431
62	0xbea4428c	-0.3208202
63	0x3fb3657e	1.4015348

network.2.weight f4 [64, 64]
0	0x3f6e9c0c	0.9320686
1	0xbf329cf7	-0.6977076
2	0x3fa2eaf0	1.2727947
3	0x3f9903f6	1.1954334
4	0x3f1cf08f	0.61304563
5	0x3d9e00a3	0.07714965
6	0x3f212cb9	0.62958866
7	0x3e40d46c	0.18831033
8	0x3f6f7d73	0.93550795
9	0x3f865cbf	1.0497054
10	0xbe4ac0b1	-0.19800068
11	0x3f4e9a63	0.80704325
12	0x3d9be074	0.076111704
13	0xbdcd5e8c	-0.10027799
14	0x3f21cb9a	0.63201296
15	0xbdbe6c62	-0.09298016
16	0x3eda8734	0.42681277
17	0x3f879beb	1.0594457
18	0x3e3500ce	0.17676088
19	0x3f4fd953	0.81190985
20	0xbff2d355	-1.8970743
21	0x3f58d6dd	0.84702855
22	0x3f383b7d	0.7196577
23	0x3efec873	0.49762306
24	0x3f6691e8	0.90066385
25	0xbeb94917	-0.36188576
26	0x3f5efbe4	0.87103105
27	0xc025c3f5	-2.5900853
28	0xbfe9bd96	-1.8260982
29	0xbfc988e1	-1.5744897
30	0x3d0d1ccc	0.03445129
31	0x3f42d5db	0.7610757
32	0x3f3e1095	0.7424405
33	0x3f252c2b	0.6452052
34	0xbff27f4e	-1.89451
35	0x3ed3cbe1	0.41366485
36	0x3e747f72	0.23876742
37	0xbc3d4990	-0.011553183
38	0x3f425f4e	0.75926673
39	0xbfbd6f8c	-1.4799666
40	0x3f373255	0.71561176
41	0x3ee29886	0.4425699
42	0x3efcb164	0.49354088
43	0xc017391a	-2.3628602
44	0x3f56a9a7	0.8385262
45	0xbfd25dbe	-1.6434858
46	0xbfd4bff3	-1.6621078
47	0xc1158860	-9.345795
48	0xbff6eaa5	-1.9290358
49	0x3f343ef5	0.70408565
50	0xbfdf0f84	-1.742661
51	0x3f59d64c	0.85092616
52	0x3f518e72	0.8185798
53	0x3f6393ea	0.88897574
54	0x3e8d8cf3	0.27646598
55	0x3f22fc12	0.6366588
56	0x3e99b7cb	0.30023035
57	0x3f704acd	0.93864137
58	0x3fa63f43	1.2988056
59	0x3f3686bc	0.7129934
60	0x3e944bb9	0.28964022
61	0x3f35d8c5	0.7103389
62	0x3df56dba	0.11983819
63	0x3ef749ea	0.4829858
64	0x3f7b4fdd	0.98168737
65	0xbc7dde5c	-0.015494909
66	0x3f626952	0.88441956
67	0x3f82792e	1.0193231
68	0x3f564e9f	0.83713716
69	0x3e82a006	0.25512713
70	0x3f3238d3	0.69617957
71	0x3e2d6089	0.16931356
72	0x3f8cfd97	1.101489
73	0x3f8b84c9	1.0899898
74	0xbe179b3a	-0.14805308
75	0x3f387f3f	0.7206916
76	0x3d8c84df	0.06861281
77	0x3c5d8350	0.013520077
78	0x3f198598	0.5996947
79	0xbd6c6580	-0.057713985
80	0x3ecdc549	0.4018958
81	0x3f8c981d	1.0983921
82	0x3eaf67ac	0.34258783
83	0x3f20b5e9	0.6277757
84	0xc0016e84	-2.0223703
85	0x3f3b6538	0.7320132
86	0x3f271a33	0.6527435
87	0x3efb7ef0	0.49120283
88	0x3f726949	0.946919
89	0xbe7934dc	-0.2433657
90	0x3f402d90	0.7506952
91	0xc02842fd	-2.6290886
92	0xbfd64f94	-1.6743035
93	0xbfd2f299	-1.6480285
94	0x3db680c4	0.08911279
95	0x3f197317	0.5994124
96	0x3f234ab2	0.6378585
97	0x3f18894b	0.5958449
98	0xbff1f1f8	-1.8901968
99	0x3e805eb4	0.25072253
100	0x3e588c07	0.21147166
101	0xbd3b44fc	-0.045720086
102	0x3f2f849a	0.6856171
103	0xbfd83a92	-1.6892874
104	0x3f48d684	0.78452325
105	0x3f1dfe52	0.61716187
106	0x3f4fea90	0.8121729
107	0xc01ebe0b	-2.4803493
108	0x3f12b9a5	0.5731452
109	0xbfcfc2b7	-1.6231297
110	0xbfc6f543	-1.5543598
111	0xc1165087	-9.39466
112	0xbfe1b405	-1.7633063
113	0x3f29b0c7	0.66285366
114	0xc0017dcc	-2.023303
115	0x3f5f3c81	0.87201697
116	0x3f22b4ea	0.635573
117	0x3f5fee2c	0.87472796
118	0x3ec15d4e	0.37766498
119	0x3f37d352	0.71806824
120	0x3ecca735	0.3997132
121	0x3f84671c	1.0343966
122	0x3f83421e	1.0254552
123	0x3f72675f	0.9468898
124	0x3eda7efd	0.4267501
125	0x3f354cbd	0.7082022
126	0xbcafb146	-0.021446835
127	0x3ea6b89d	0.32562724
128	0x3f957f67	1.1679505
129	0xbf6a5625	-0.91537696
130	0x3fa04841	1.252205
131	0x3f900dca	1.1254208
132	0x3f0f46fc	0.5596769
133	0x3ed58640	0.41703987
134	0x3f37156b	0.71517056
135	0x3ea03186	0.31287783
136	0x3f821bd8	1.0164747
137	0x3fa28905	1.2698065
138	0xbe308873	-0.17239551
139	0x3f480847	0.7813763
140	0xbd3574a3	-0.044300687
141	0x3cf5e8a0	0.03001815
142	0x3f11b8bf	0.56922525
143	0xbdb50340	-0.088385105
144	0x3ef139d0	0.4711442
145	0x3f69801e	0.91211116
146	0x3dacb5ba	0.08433099
147	0x3f4ddd89	0.8041616
148	0xbfd3d5e2	-1.6549647
149	0x3f6cb099	0.92456967
150	0x3f613912	0.8797771
151	0x3ef7247d	0.48270026
152	0x3f8d80ea	1.1054966
153	0xbef4b2a8	-0.47792554
154	0x3f2915ae	0.66048706
155	0xc02ac4dc	-2.6682653
156	0xbff0bf5d	-1.88084
157	0xbfdd7360	-1.7300835
158	0xbd237fc0	-0.039916754
159	0x3f309f97	0.68993515
160	0x3f2411cb	0.6408965
161	0x3ef7b053	0.48376712
162	0xbfefa16d	-1.8721138
163	0x3ebc873c	0.36821926
164	0xbd8ff0d7	-0.070283584
165	0xbda6abf6	-0.08138268
166	0x3f671a30	0.90274334
167	0xbfc43cc3	-1.5331043
168	0x3f7236e9	0.94615036
169	0x3f4c7665	0.79868156
170	0x3f0a7416	0.54083383
171	0xc02259be	-2.5367274
172	0x3f5671f1	0.8376761
173	0xbfddf219	-1.7339507
174	0xbfe12685	-1.758988
175	0xc116da4e	-9.428297
176	0xbfe90a7f	-1.8206328
177	0x3f6d408b	0.9267661
178	0xbffda066	-1.9814575
179	0x3f369959	0.7132774
180	0x3f5986e1	0.84971434
181	0x3f5757e1	0.8411847
182	0x3ebef607	0.3729708
183	0x3f406935	0.75160533
184	0x3e886e2c	0.26646554
185	0x3f626159	0.8842979
186	0x3f98c0c5	1.1933829
187	0x3f3ecc94	0.7453091
188	0x3da20bc2	0.07912399
189	0x3f481622	0.7815877
190	0xbe440cc5	-0.19145496
191	0x3e1f14a5	0.15535219
192	0x3f1e6a57	0.6188101
193	0xbfc075a0	-1.5035896
194	0x3f4ef1a2	0.8083745
195	0x3f0d398a	0.5516592
196	0x3f3903e9	0.7227159
197	0x3ef3801e	0.47558683
198	0x3f9fa9f9	1.2473747
199	0x3f388eae	0.7209271
200	0x3f2da76e	0.678336
201	0x3f25709b	0.6462495
202	0xbec87c4c	-0.3915733
203	0x3f413cb2	0.7548324
204	0x3e0917e0	0.13388014
205	0xbdde4304	-0.10852626
206	0x3f02da6b	0.5111453
207	0x3cc14f48	0.023597375
208	0x3f203dc0	0.62594223
209	0x3fb02e0d	1.3764054
210	0x3f2d99d0	0.67812824
211	0x3f853298	1.0406065
212	0xbfd09185	-1.6294409
213	0x3f5b172f	0.8558225
214	0x3f9dd3da	1.2330277
215	0xbf9ec344	-1.240334
216	0x3e6a1eff	0.22863387
217	0x3ebb0edb	0.3653477
218	0x3f9371c7	1.1519097
219	0xbfb57c53	-1.4178566
220	0xbf50c8f6	-0.8155664
221	0xbf38e7fe	-0.7222899
222	0xbce344f0	-0.027742833
223	0x3f935648	1.1510706
224	0x3f7b50ca	0.9817015
225	0x3f82c308	1.0215769
226	0xbf6e36d7	-0.9305243
227	0x3ef1b8d4	0.47211325
228	0xbf728a4d	-0.9474228
229	0xbd30d1e8	-0.043168932
230	0x3f8f070f	1.1174029
231	0xc1842dde	-16.522396
232	0xbe044667	-0.12917481
233	0x3f0b21b7	0.5434832
234	0x3fb3960d	1.4030167
235	0xc111a5e8	-9.103004
236	0x3f8fb6e9	1.1227695
237	0xc0cb9caa	-6.362874
238	0xc0d4c628	-6.649189
239	0xc1278217	-10.46926
240	0xc0d6cc90	-6.712471
241	0x3fa520bd	1.2900616
242	0xbf911f82	-1.133774
243	0x3f8f0e14	1.1176171
244	0x3f7ee836	0.99573076
245	0x3f9f0e17	1.2426175
246	0x3f2e4d5b	0.68086785
247	0x3f8774aa	1.0582478
248	0x3eacbc36	0.33737344
249	0x3fa13487	1.2594155
250	0x3f23ab6b	0.6393344
251	0x3f959108	1.1684885
252	0x3ef4269c	0.47685707
253	0x3fa67807	1.300538
254	0xbe5f0119	-0.21777762
255	0x3f31a451	0.6939135

network.2.bias f4 [64]
0	0x3f0df288	0.554482
1	0x3ed998e6	0.42499465
2	0x3ec3286c	0.38116777
3	0x3f3027a5	0.6881049
4	0xbdf8b4ae	-0.12143837
5	0x3eb63742	0.35589033
6	0x3f87d5a2	1.061207
7	0x3f0f171e	0.5589465
8	0x3fb14d84	1.3851781
9	0x3ee6fba0	0.4511385
10	0x3fc47f29	1.5351306
11	0x3f8dd99e	1.1082036
12	0x3e88a39d	0.26687327
13	0x3f0398ce	0.51405036
14	0x3eaa9d07	0.33322927
15	0x3efac5f0	0.4897914
16	0xbd6b1dd0	-0.05740148
17	0x3eb9c9bc	0.36286724
18	0xbe0da3de	-0.13832042
19	0x3ed73944	0.42035878
20	0x3f40e01f	0.7534198
21	0xbe012087	-0.12610064
22	0x3f0a5c21	0.5404683
23	0x3f0bce0c	0.5461128
24	0xbdd597d2	-0.10429348
25	0x3d343501	0.04399586
26	0xbcca326b	-0.024682244
27	0x3f50e6f5	0.8160241
28	0x3f01e70f	0.5074319
29	0x3ed69810	0.4191289
30	0x3f0e5a9e	0.5560702
31	0x3f007015	0.50171024
32	0xbda62d82	-0.08114149
33	0x3eb695b2	0.35661083
34	0x3eb6af6e	0.35680717
35	0x3ed1bbfe	0.4096374
36	0x3ea81fbb	0.32836708
37	0x3f926719	1.1437713
38	0x3ea0fcdb	0.31442913
39	0x3eb39e31	0.35081628
40	0xbdeca9ee	-0.11555849
41	0x3f1f54c5	0.62238723
42	0x3edd1623	0.4318095
43	0x3dbe4a4c	0.09291515
44	0x3ea9782f	0.33099505
45	0x3db03e36	0.08605616
46	0xbd33a4f4	-0.043858483
47	0x3eff6032	0.4987808
48	0x3f71379e	0.9422549
49	0x3f0305e3	0.5118086
50	0x3eed5e0c	0.46360815
51	0x3edcf8f8	0.43158698
52	0x3f0b846f	0.5449895
53	0x3f01b33a	0.50664103
54	0x3f04c7b3	0.51867217
55	0xbdd6d5a5	-0.10489968
56	0x3ed3326f	0.41249415
57	0x3e264f56	0.16241202
58	0x3fa5521b	1.2915682
59	0xbd4bac08	-0.04972461
60	0x3ed853d6	0.42251462
61	0x3ea6824e	0.3252129
62	0x3fc9f2cb	1.577722
63	0x3bed0e48	0.0072343685

network.4.weight f4 [11, 64]
0	0x3f8aa4b2	1.0831511
1	0x3f8031dc	1.0015216
2	0x3fa3afe2	1.278805
3	0x3f9255f1	1.1432477
4	0xbd9a57bc	-0.07536265
5	0x3f8f09f4	1.1174912
6	0xbf96700e	-1.1752946
7	0x3f67d76a	0.9056307
8	0xbff11792	-1.8835318
9	0x3faa8682	1.3322299
10	0xbff8e574	-1.9445024
11	0xbf8e04b3	-1.1095184
12	0x3f99d4cd	1.2018067
13	0xbefa5424	-0.4889232
14	0x3f9796c5	1.1842886
15	0x3f862224	1.0479169
16	0xbd2560f8	-0.04037568
17	0x3f50ea4a	0.81607497
18	0xbcb695c9	-0.02228822
19	0x3fae4f56	1.3617961
20	0x3f93bff4	1.1542954
21	0x3b79cbf5	0.0038115953
22	0x3fa55e67	1.2919434
23	0x3f8091c6	1.0044487
24	0xbd86b85b	-0.06578132
25	0xbcb805a4	-0.022463627
26	0xbc2b5fdc	-0.010459866
27	0x3fa296a5	1.2702223
28	0x3f5ebe3d	0.8700903
29	0x3f9e6c7c	1.2376857
30	0x3f9344b3	1.150534
31	0x3f8c7c58	1.0975447
32	0xbc0a2d40	-0.00843364
33	0x3fa3f1fe	1.2808225
34	0x3f80c29c	1.005939
35	0xc097a975	-4.7394357
36	0xc07f729d	-3.9913704
37	0xbfec642c	-1.846807
38	0x3f631658	0.8870597
39	0x3fa0d402	1.25647
40	0xbde06d32	-0.10958327
41	0xbfe73275	-1.8062273
42	0x3f7e6f78	0.9938884
43	0xbd4d9af2	-0.050196595
44	0x3f933a64	1.1502194
45	0xc0975fee	-4.73046
46	0x3aad2e00	0.0013212562
47	0x3f94c83e	1.1623609
48	0x3e40ea99	0.18839492
49	0x3f9fe206	1.2490852
50	0xbfec6ddd	-1.8471028
51	0x3faaa53a	1.3331673
52	0x3f88b0bd	1.0678936
53	0x3fa222cc	1.2666869
54	0x3fa1ab3f	1.2630385
55	0x3d74c2c8	0.05975607
56	0x3f9a4ac7	1.205407
57	0xc090fa08	-4.5305214
58	0xbfe8cba1	-1.8187143
59	0x3d5aa56c	0.053380415
60	0x3f9a0959	1.2034103
61	0x3fa47c50	1.2850437
62	0xc006a63f	-2.1038969
63	0xbd09cb56	-0.033641182
64	0x3f9b5350	1.21348
65	0x3f924664	1.1427732
66	0x3fa5df4a	1.2958767
67	0x3fc0ccbe	1.5062482
68	0xbd27fcfc	-0.04101275
69	0x3f9015ea	1.1256688
70	0xbf871463	-1.0553097
71	0x3f67f0d5	0.90601856
72	0xc00b0dfc	-2.1727285
73	0x3fb0b655	1.3805643
74	0xc01568f2	-2.3345304
75	0xbf4da564	-0.8033049
76	0x3f6adc13	0.91742057
77	0xbec808fe	-0.3906936
78	0x3f78e11b	0.97218484
79	0x3f709ffb	0.9399411
80	0xbdc062d0	-0.09393847
81	0x3f8d3537	1.1031865
82	0x3d099e40	0.033598185
83	0x3f88c884	1.0686193
84	0x40057d39	2.085768
85	0x3d0f0fc5	0.03492715
86	0x3fa36cc0	1.2767563
87	0x3f6d5ef8	0.92723036
88	0x3db687d0	0.08912623
89	0xbd8a7e2b	-0.06762346
90	0x3dbeab39	0.09310002
91	0x3fe1f9b4	1.7654328
92	0x3f8ce197	1.1006345
93	0x3f9432f1	1.1578046
94	0x3fa672f8	1.3003836
95	0x3f6e377f	0.9305343
96	0xbcc7a880	-0.02437234
97	0x3f8b76e8	1.0895662
98	0x3f7f4958	0.9972129
99	0xc0978893	-4.7354217
100	0xc08221db	-4.0666327
101	0xbfd90445	-1.6954428
102	0x3f9e5448	1.2369471
103	0x3f8ba892	1.0910819
104	0x3df371e6	0.11886959
105	0xbf9b057e	-1.2111051
106	0x3f8aaf95	1.0834833
107	0x3c0262a7	0.007958091
108	0x3f7a7a66	0.97843015
109	0xc0bb6152	-5.85563
110	0x3dec8a5a	0.11549826
111	0x3f9c5f9e	1.221668
112	0xbe1697d7	-0.1470636
113	0x3f889677	1.0670918
114	0xbfad36c0	-1.3532333
115	0x3f74878d	0.95519334
116	0x3f8e9914	1.1140466
117	0x3fa91165	1.3208433
118	0x3f982842	1.1887286
119	0xbb223680	-0.0024751723
120	0x3f7a1811	0.9769297
121	0xc09071bd	-4.513884
122	0xbfda2bcc	-1.7044616
123	0x3de0857e	0.109629616
124	0x3f824e56	1.0180156
125	0x3f9458a8	1.1589556
126	0xc02fb265	-2.7452633
127	0xbd0d92ea	-0.034563936
128	0x3f8f0bf3	1.1175522
129	0x3f5bec12	0.8590709
130	0x3f9e67a3	1.2375377
131	0x3eba0fdb	0.36340222
132	0xbd512770	-0.051063
133	0x3f9d91ea	1.2310154
134	0xbfbc31fe	-1.4702756
135	0x3f8e559f	1.111988
136	0xbfda791f	-1.7068213
137	0x3f5c0e91	0.85959727
138	0xbfd4adcf	-1.6615542
139	0xbfd5c605	-1.6701056
140	0x3f87e2c9	1.0616084
141	0xc02a8ff4	-2.6650362
142	0x3f86a9d3	1.0520576
143	0x3f7bc3f9	0.98345906
144	0xbc9f5edb	-0.01945441
145	0x3fa3a980	1.2786102
146	0x3d8e7614	0.06956115
147	0x3f785467	0.9700379
148	0x3f85f971	1.0466748
149	0xbd16b1d8	-0.0367907
150	0x3f9128fe	1.1340635
151	0x3f98f327	1.1949204
152	0xbd2cc74c	-0.04218225
153	0xbd0b8aa7	-0.034067776
154	0xbde9e2ec	-0.11420235
155	0x3f8d6471	1.1046277
156	0x3f950708	1.1642771
157	0x3fa8c072	1.318373
158	0x3f81420f	1.0098284
159	0x3f9d48d5	1.2287852
160	0xbd1b38e4	-0.037896052
161	0x3fa5f1db	1.2964433
162	0x3f9a0622	1.2033122
163	0xc05e79aa	-3.4761758
164	0xc0565592	-3.3489728
165	0xbfcd43be	-1.6036298
166	0x3f80fb25	1.0076643
167	0x3f8ed7bb	1.1159586
168	0x3dba0539	0.090830274
169	0xc02afe8b	-2.671786
170	0x3fa2e4f4	1.2726121
171	0xbd728af3	-0.059214544
172	0x3f51e9fb	0.8199765
173	0xc0a12202	-5.0354013
174	0xbccb6fc8	-0.024833575
175	0x3f9e6d3f	1.2377089
176	0x3fb19cc4	1.3875966
177	0x3f850a02	1.0393679
178	0xbf4efaba	-0.8085133
179	0x3f84e94e	1.0383699
180	0x3fa2c5cf	1.2716616
181	0x3f82db93	1.0223259
182	0x3f78a0a4	0.9712012
183	0xbcef8a80	-0.029240847
184	0x3f6176e4	0.8807204
185	0xc02fd95f	-2.7476423
186	0xbfcb3c1a	-1.5877717
187	0x3d5ada44	0.05343081
188	0x3f6c6490	0.92340946
189	0x3f7d3d15	0.9892133
190	0xbfd77429	-1.6832324
191	0x3dbc8a0c	0.09206018
192	0x3f8f0b0e	1.1175249
193	0x3f9196b4	1.1374116
194	0x3f8d5a71	1.1043226
195	0x3f89933b	1.0748056
196	0x3df6fd24	0.120600015
197	0x3f896874	1.0735002
198	0xbfd6450a	-1.6739819
199	0x3f8b68c6	1.0891349
200	0xbfe92c17	-1.821658
201	0x3f7dba78	0.99112654
202	0xbff9d7b9	-1.9518958
203	0xbfc65151	-1.5493566
204	0x3f876d5f	1.0580252
205	0xc03326e3	-2.7992485
206	0x3f95b88b	1.1696943
207	0x3f9637bf	1.1735762
208	0xbdd620b4	-0.104554564
209	0x3f3b6a38	0.7320895
210	0xbdb0d884	-0.08635047
211	0x3f86ec16	1.0540798
212	0x3fc8254c	1.5636382
213	0xbcafc235	-0.02145491
214	0x3f8795fc	1.0592647
215	0x3f8188c8	1.0119867
216	0x3df44e94	0.1192905
217	0xbd2bedba	-0.04197476
218	0x3d526829	0.051368866
219	0x3fbb6cc6	1.464257
220	0x3f87008f	1.0547045
221	0x3f933694	1.1501031
222	0x3f84a5b1	1.0363065
223	0x3f98872c	1.1916251
224	0x3da33af0	0.07970226
225	0x3f9384b5	1.1524874
226	0x3f894d2e	1.0726678
227	0xc02dd91f	-2.716377
228	0xc03aef7f	-2.9208677
229	0xbfd222ed	-1.6416909
230	0x3f3cf915	0.7381757
231	0x3f8a6233	1.0811218
232	0xbe023cf5	-0.12718566
233	0xc0282fa9	-2.627909
234	0x3f2b702e	0.6696805
235	0xbd5ef28c	-0.05443053
236	0x3f88cd6e	1.0687692
237	0xc08c8473	-4.391168
238	0xbce736c8	-0.028224364
239	0x3f95a981	1.1692353
240	0x3f507c4d	0.8143967
241	0x3fa0d895	1.2566096
242	0xbe92e153	-0.28687534
243	0x3f8773ec	1.0582252
244	0x3f83b3ec	1.0289283
245	0x3f97d4f8	1.1861868
246	0x3f80c41f	1.0059851
247	0x3cd5e9b0	0.026112407
248	0x3f89f471	1.0777723
249	0xc02c8e44	-2.6961832
250	0xbfdc8c85	-1.7230383
251	0x3dfd2ac8	0.123616755
252	0x3f8878b0	1.0661831
253	0x3f877dfc	1.0585322
254	0xbff7eef3	-1.9369797
255	0xbd52ec89	-0.05149511

network.4.bias f4 [11]
0	0xbd841b43	-0.06450512
1	0x3f0886ed	0.5333088
2	0xbe7912a5	-0.24323519
3	0xbf091d32	-0.53560174
4	0xbc9563ce	-0.018236067
5	0xbe9ec923	-0.3101283
6	0x3f92aab3	1.1458343
7	0x3f9bba23	1.216618
8	0x3f952b12	1.1653769
9	0x3fd411a9	1.656789
10	0x3c98004b	0.018554827
