pendulum_rl_final_model.pt (torch, 24149 bytes, 6 tensors)

network.0.weight f4 [64, 4]
000000 9b c0 32 41 3e 4e bd 40 87 74 03 be 38 a0 6d ba
       11.172023 5.915801 -0.1283742 -0.0009064707
000010 1b e3 f7 bd 6e bc d1 3d 4a bc 43 be 74 0e 77 3e
       -0.12103864 0.10241018 -0.19114795 0.24126607
000020 9d 0d fc 40 43 fe 8f 40 2d 33 af 40 e1 f7 07 be
       7.876662 4.499788 5.474997 -0.13278152
000030 3e 34 2f 41 da d1 b9 40 a3 86 ee bd 1d 32 eb 38
       10.950254 5.8068666 -0.11646774 0.000112150075
000040 3b dd 23 41 2e 95 c3 40 fe 53 14 bf 31 5b 1b bd
       10.241511 6.1119604 -0.5794066 -0.037928764
000050 b7 ff a0 c0 16 97 1e c0 b0 ae 5c 3e 2c 5e 43 bc
       -5.031215 -2.4779716 0.21551013 -0.011924308
000060 be 7e 25 c1 f0 a0 b1 c0 42 21 01 bd 6f a3 92 ba
       -10.343443 -5.5508957 -0.031525858 -0.0011187623
000070 c2 5e 92 c0 58 13 23 c0 5b 2d 44 3f f4 03 00 3d
       -4.574067 -2.5480556 0.76631707 0.03125377
000080 5d b4 24 41 f6 63 ef 40 db 54 c5 be 57 82 d6 bd
       10.294034 7.4809523 -0.38541302 -0.10474079
000090 bf 39 30 41 12 ef ba 40 04 e5 ec bd 70 da 81 ba
       11.014098 5.8416834 -0.11567119 -0.0009907018
0000a0 17 0a 3f 40 15 70 09 40 54 71 e4 3f 8e ff 4a 3f
       2.9849908 2.147466 1.7847085 0.79296196
0000b0 0f 44 93 c0 7d 08 92 c0 f7 4a 00 40 5d e7 36 3d
       -4.602058 -4.563536 2.0045755 0.04465424
0000c0 6b 75 cd bc 0b 8e 82 bf 40 af 0a c0 5a 85 98 be
       -0.025080403 -1.0199598 -2.1669464 -0.2978924
0000d0 9c 5b c4 be d6 0e d2 3e d8 78 13 3e cc 13 54 3e
       -0.38351142 0.41026944 0.14401567 0.20710677
0000e0 e7 80 10 41 d0 c2 d6 40 e3 0e 99 3f 65 8b aa bb
       9.03147 6.711281 1.1957668 -0.0052046054
0000f0 20 f3 00 3d f4 ba ae be 50 e0 1d 3e e0 52 30 be
       0.031481862 -0.3412701 0.154176 -0.17219114
000100 48 ee 6f c0 37 d7 a4 c0 dd 16 e8 3f c0 86 32 bd
       -3.7489185 -5.1512713 1.8131977 -0.04358554
000110 2d 7f ed c0 6d 43 9d c0 a3 c8 0d 40 9b c4 84 39
       -7.4217744 -4.9144807 2.215371 0.00025323484
000120 dc 00 07 40 fb 3c 6f c0 97 b5 42 bf 86 a5 04 be
       2.1094275 -3.738097 -0.76058334 -0.12953767
000130 a3 3c 12 c0 d6 5e 1f c0 16 03 81 3f 1f ae 00 3f
       -2.284951 -2.4901633 1.0079067 0.5026569
000140 8b 88 8e c0 c9 aa 24 c0 6b f3 55 3f 9c 35 b1 3c
       -4.454168 -2.572924 0.8357455 0.021632008
000150 99 f7 21 41 2f 34 a6 40 91 8c b0 bd f0 b6 80 ba
       10.122949 5.19387 -0.08620561 -0.0009820145
000160 1e 86 14 c1 be 68 9a c0 8e 9b be bc 0b 4c 40 bb
       -9.282743 -4.825286 -0.023267534 -0.00293422
000170 39 1f 12 41 e3 bb d1 40 1e 32 f0 be 0a d8 01 bc
       9.132623 6.5541854 -0.46913236 -0.007925043
000180 86 f7 31 41 5e 8d bc 40 e8 fe fd bd 2a 11 1f 3b
       11.122931 5.8922567 -0.12402135 0.0024271705
000190 52 81 80 c0 83 29 62 bf 1c 72 3e 3e 95 dc 8d be
       -4.015786 -0.8834459 0.18598217 -0.27707353
0001a0 28 ce 99 be 4b 98 c6 bf d7 04 6a c0 fb b7 ed bb
       -0.30040097 -1.5515226 -3.6565454 -0.007254598
0001b0 5a 9b a7 c0 f4 2c 2f c0 3b 11 94 3e 54 e1 7f 3c
       -5.237714 -2.7371187 0.28919396 0.015617687
0001c0 2e f9 8d c0 b0 3e 29 c0 43 48 3e 3f a9 9c c5 bc
       -4.4366674 -2.6444511 0.7432901 -0.024122553
0001d0 8d 3e 99 c0 1b 70 2d c0 ee 53 93 bd d5 33 0e 3c
       -4.7888856 -2.7099674 -0.07193743 0.00867935
0001e0 00 9e b5 3a 50 84 3e be f0 ea 0d bd 24 79 ad be
       0.0013856292 -0.1860516 -0.034647882 -0.33881485
0001f0 37 f1 1d c1 4d f6 a7 c0 00 81 92 3d 92 5b ca bb
       -9.87139 -5.248816 0.07153511 -0.006175467
000200 65 cf 3d 41 fe 87 70 3f 64 ac 87 be dc e8 ff bc
       11.863133 0.9395751 -0.2649871 -0.031238966
000210 6a d7 26 41 06 f3 b0 40 c9 e2 f8 bd 4b f4 99 ba
       10.427591 5.529666 -0.12152631 -0.0011745779
000220 4a 22 94 c0 32 40 35 c0 e5 f8 2e 3f 2c 9a b8 bc
       -4.6291857 -2.8320432 0.6834853 -0.022534452
000230 10 83 63 c0 56 13 03 c0 86 ba 88 40 11 d4 7f be
       -3.5548744 -2.0480552 4.272769 -0.2498324
000240 fb 06 0e 41 e1 a6 bd 40 8a eb ca be 0d 24 29 3f
       8.876704 5.926621 -0.39632827 0.66070634
000250 a0 34 e9 3e f2 fc ca be 88 da 00 3e 78 39 5c be
       0.45547962 -0.39646107 0.12583363 -0.21506298
000260 e4 26 f3 c0 3a 00 81 c0 72 4b e3 bd 75 f8 db 3c
       -7.5984974 -4.0312777 -0.110983744 0.026851872
000270 fa 6e a0 40 09 a6 90 3f 5c ec c7 3f ee 25 2f bc
       5.013547 1.130067 1.5619006 -0.0106901955
000280 a0 10 c2 40 fd 9e a8 40 35 4e 0c 40 c5 8e 37 3b
       6.0645294 5.2694077 2.1922734 0.0028008681
000290 59 de 35 be 5b e5 b3 bf 57 15 8e c0 e2 1f b1 3e
       -0.177606 -1.4054369 -4.440105 0.34594637
0002a0 bf 03 9d bf be c6 2b c0 0c 8d c0 bf c1 dc 9b bd
       -1.2266768 -2.6840053 -1.5043044 -0.07610465
0002b0 61 48 65 40 82 3f 1e 3f d9 b6 47 be 7a de c7 bd
       3.5825427 0.61815655 -0.19503345 -0.09759231
0002c0 d9 54 d6 c0 d3 9a 6c c0 db 34 13 40 73 2e 63 bc
       -6.6978574 -3.6969497 2.300101 -0.013866055
0002d0 c7 af 97 40 4d 33 16 40 45 90 11 be 44 6c 87 3e
       4.740207 2.3468812 -0.1421519 0.26449788
0002e0 b2 9e 6e 41 16 11 f1 40 36 66 64 bf 0c 37 0e bc
       14.913744 7.5333357 -0.8921846 -0.008680116
0002f0 8b 09 10 be 20 65 5f 3d a8 96 93 bd b3 1e 0b be
       -0.1406614 0.0545398 -0.0720647 -0.1358593
000300 d9 ba ad 40 5b 50 88 40 40 77 f5 bf df c6 db bb
       5.4290586 4.259809 -1.9177017 -0.006707057
000310 d6 5b ab c0 5c 46 19 c1 26 09 a9 3e 2e d2 8f 3e
       -5.3549604 -9.579678 0.33014792 0.28090042
000320 f7 af 37 c0 b8 ac 15 c0 38 2c 7c 3f a0 6c 01 bc
       -2.870115 -2.338667 0.9850497 -0.007899433
000330 83 25 83 c0 16 b9 cd bf 45 8f a2 3e 30 d6 44 bf
       -4.098329 -1.6072109 0.3174993 -0.76889324
000340 98 bd 0e c0 6b 4f b1 bf aa 89 a3 3f 6f 73 06 3f
       -2.230322 -1.3852361 1.2776387 0.5251989
000350 b2 8b 29 c1 95 39 b8 c0 83 41 70 3d 88 d4 a6 bb
       -10.596605 -5.757029 0.058656227 -0.0050912537
000360 80 50 11 c1 00 6c dc c0 44 09 74 3f 24 d1 0e 3e
       -9.082153 -6.8881836 0.9532664 0.13946968
000370 d5 6c 20 c1 32 b2 ae c0 a8 4c 58 bd fb 71 e7 39
       -10.02657 -5.4592524 -0.05280748 0.00044144675
000380 a1 44 6a c0 fd 86 fa bf 51 0e 22 3e 10 aa a3 3c
       -3.6604388 -1.9572445 0.15825774 0.019978553
000390 fe 25 1f c1 49 b8 ac c0 a2 0f b2 3d fb a1 83 bb
       -9.946775 -5.3974957 0.08694388 -0.0040171123
0003a0 cd 4c 30 41 31 94 ba 40 36 fa fc bd a3 bd 27 3b
       11.01875 5.83059 -0.123524114 0.002559521
0003b0 58 c2 23 c1 a5 15 b1 c0 d3 ea 1c 3e ce 1d d4 bb
       -10.234947 -5.533892 0.15323953 -0.0064732796
0003c0 96 75 6b c0 60 45 c9 c0 da b0 8d 3e 0b 37 6c bd
       -3.6790519 -6.2897186 0.2767399 -0.05766968
0003d0 a2 d9 17 c1 67 70 a3 c0 28 d3 c6 bd 17 87 cc 3c
       -9.490633 -5.107471 -0.097082436 0.02496676
0003e0 4b 45 a2 40 b7 e1 60 40 4c fe c9 bf 61 5a 02 3e
       5.0709586 3.5137765 -1.578073 0.1272979
0003f0 37 15 1d c1 e7 73 13 c0 46 b5 06 3e 0c 0f 68 3d
       -9.817679 -2.303949 0.13155088 0.056654975

network.0.bias f4 [64]
000000 56 7e 3c 3f 63 bd cc be fe 1b 67 3f fb 89 37 3f
       0.73630273 -0.3998824 0.9027709 0.71694916
000010 0b 84 29 3f 25 eb 44 be 5a 90 2c 3f 6f ed dd be
       0.66217107 -0.19230326 0.67407763 -0.4334521
000020 ea a8 45 3f 91 f7 38 3f 38 22 12 40 2b 93 30 3e
       0.7721087 0.72252756 2.2833385 0.1724364
000030 0e f7 b5 3f 8c c1 d5 be ff f3 92 3f c2 22 fe be
       1.421602 -0.41749227 1.1480712 -0.49635893
000040 2f 9a d9 3f e4 55 44 3e 32 83 24 40 5a f0 ae be
       1.7000178 0.1917339 2.5705075 -0.3416775
000050 10 e2 13 bf ec 83 2a 3f 26 f0 1e 3f 4f e8 cd 3e
       -0.5776682 0.66607547 0.6208519 0.402163
000060 d5 5c 3a 3f cf 4d 63 3d 86 99 1e 40 51 2e 34 be
       0.727979 0.055494126 2.4781203 -0.17595793
000070 08 6d cd be 6d 3a 29 be 20 47 f3 be 44 65 26 3f
       -0.40122247 -0.16526194 -0.47515202 0.6499827
000080 27 01 66 3f df ed 2f 3f e4 97 f4 be dd 64 1e 3f
       0.8984551 0.6872234 -0.47772133 0.61872655
000090 9c 88 5a 3c fe 1f f9 be 70 eb 05 3f 93 d6 0a 3f
       0.013338234 -0.4865722 0.52312374 0.54233664
0000a0 2a 6c 1a bf 87 76 3e 40 b1 2b 4a 3e 14 3f 48 3d
       -0.60321295 2.9759843 0.1974323 0.04888828
0000b0 d7 b1 43 3e c2 a7 c1 bc 0c 51 4d bf 7c 4d 81 be
       0.1911081 -0.023639563 -0.8020179 -0.25254428
0000c0 e0 73 2e bf 68 a4 09 40 9e 69 ed 3e 84 02 9b 3e
       -0.6814556 2.1506596 0.46369642 0.30275357
0000d0 6d e5 ad be 99 f7 30 3f 4e f6 db 3f 94 ea 27 3f
       -0.339641 0.69127804 1.7184541 0.6559231
0000e0 a1 e3 57 be 06 25 27 3f 07 9a 38 3f 6c 86 2b 3f
       -0.21082927 0.6529087 0.7211003 0.67001987
0000f0 af 0d 0a 40 36 48 25 3f 4b bd 76 3f 84 58 d5 3f
       2.1570852 0.6456331 0.9638259 1.6667638

network.2.weight f4 [64, 64]
000000 75 df 2a 3f 22 f9 a3 bc bf 70 4e bf 61 ae 6a 3f
       0.6674722 -0.020016257 -0.80640787 0.9167233
000010 5b b8 34 3f aa a2 d7 bf 74 11 84 3f 60 19 f7 bf
       0.70593804 -1.6846516 1.0317826 -1.9304619
000020 4f 6a 31 3f 3e b6 43 3f 3e 05 cb 3e c4 8a b6 3f
       0.6930284 0.76449955 0.39652437 1.4261098
000030 71 48 ff 3d 8c 5e cd bd f9 95 40 3f 62 6c be bd
       0.12464989 -0.10027799 0.7522884 -0.09298016
000040 b6 af 37 3f 53 87 f9 3f 97 00 ff 3e 7a f7 05 3f
       0.7175249 1.9494423 0.49805138 0.52330744
000050 d8 47 0a c0 d8 ca 3e 3f b2 85 8b 3f ff 11 57 3f
       -2.160635 0.74528265 1.0900176 0.84011835
000060 13 53 23 3f 45 35 f7 3e a9 dc 89 3e 75 04 0c c0
       0.63798636 0.4828283 0.26926163 -2.187772
000070 0e 1e 1e c0 a4 05 cd bf cc 1c 0d 3d 28 7f 9c 3f
       -2.4705844 -1.6017346 0.03445129 1.2226305
000080 d9 f1 07 3f 37 e7 5c 3f 56 49 17 c0 32 75 31 be
       0.53103405 0.86290306 -2.363851 -0.17329863
000090 af 4d 4d be 90 49 3d bc 0b 8b a2 3f bf e9 e8 c0
       -0.20049165 -0.011553183 1.2698683 -7.2785335
0000a0 2c ac 1d c1 4b 31 5b 3e 55 a2 1c 40 fa fe 93 c0
       -9.854534 0.21405523 2.447408 -4.624875
0000b0 29 df e1 3f b0 6c bb c0 88 6a 0e c2 e0 8f d7 bd
       1.7646228 -5.8570175 -35.604034 -0.10525489
0000c0 ab 04 03 c1 75 f6 40 3f cf a0 fe bf c4 2b 2b 3f
       -8.18864 0.75376064 -1.9892825 0.66863656
0000d0 7a a8 83 be ec ea 8d 3f a6 0d 38 3f ca 48 81 3f
       -0.25714475 1.1087317 0.71895826 1.0100338
0000e0 f0 3f 15 40 94 74 a7 3f 98 28 64 3f a9 21 88 3f
       2.3320274 1.3082452 0.8912444 1.0635272
0000f0 c0 90 17 3f 3c 66 85 3f fe 0c 9f 3d ac 5f 56 3f
       0.59205246 1.0421824 0.0776615 0.83739734
000100 81 c8 b4 3f b1 d6 fe 3d bc a1 52 be b8 f8 b5 3f
       1.4123689 0.12443293 -0.2056951 1.4216528
000110 ac f9 a2 3f 26 11 d5 bf 15 5e 54 3f b6 a3 f3 bf
       1.2732444 -1.6645858 0.8295606 -1.9034336
000120 8a bf a3 3f c9 92 bd 3f f5 45 30 3f 8e 48 68 3f
       1.2792828 1.481042 0.68856746 0.9073571
000130 1b c0 b4 be 50 83 5d 3c af 6a a2 3f 80 65 6c bd
       -0.35302815 0.013520077 1.2688807 -0.057713985
000140 78 87 45 3f 60 2d d5 3f ab f7 51 3e 7d e8 f1 3e
       0.77159834 1.6654472 0.20504634 0.47247687
000150 ea d0 09 c0 80 f0 ad 3f 7c 16 52 3f ff d8 ad 3f
       -2.153376 1.358902 0.8206556 1.3581847
000160 a5 34 b4 3f 60 85 bd 3e 7a 20 14 bf 02 31 0f c0
       1.4078566 0.3701582 -0.57862055 -2.2373662
000170 b1 a6 15 c0 c8 8d d5 bf c4 80 b6 3d 18 97 59 3f
       -2.338299 -1.6683893 0.08911279 0.84996176
000180 e2 9a c9 3e 98 a5 ca 3f 54 08 17 c0 ce 20 a1 3e
       0.3937598 1.5831785 -2.3598833 0.3147034
000190 c8 01 3e 3f fc 44 3b bd a4 38 79 3f 37 82 61 bd
       0.7422147 -0.045720086 0.9735205 -0.055055823
0001a0 39 a8 84 bf b4 8a bf be eb ed 34 3f 75 10 63 be
       -1.0363837 -0.3741051 0.70675534 -0.22174247
0001b0 e7 1e a0 3f fb c8 b8 be a6 24 f6 bf 48 72 d2 bc
       1.2509431 -0.36090836 -1.9229934 -0.02568926
0001c0 f7 20 30 c0 ee c9 c8 3e 2c 69 02 c0 d0 89 4d 3e
       -2.752012 0.3921656 -2.0376692 0.20072103
0001d0 65 de 58 3e 3f 29 68 3f 4b 8f 06 3f e4 26 56 3f
       0.21178587 0.90687937 0.525624 0.8365309
0001e0 4d e0 f9 3f 04 09 90 3f 28 4b ae 3f 69 8a 88 3f
       1.9521576 1.1252751 1.3616686 1.066724
0001f0 38 02 e5 3e 8b 5c 3f 3f 13 0c c7 be 6b 9f f8 3e
       0.44728255 0.74750584 -0.388764 0.48559126
000200 85 76 69 3f bb 75 b8 bd c7 a2 3b be 49 b3 58 3f
       0.9119647 -0.0900683 -0.18323813 0.8464857
000210 25 e1 1d 3f a6 31 5e c2 01 0a 86 3f 8b b2 0f c2
       0.6167167 -55.548485 1.0471803 -35.92436
000220 88 f0 f9 3e 89 c8 8b 3f b4 59 8e 3f 90 fb e8 3f
       0.48816323 1.0920573 1.1121125 1.8201771
000230 30 6b 2e 3e a0 e8 f5 3c 54 7f af 3f 40 03 b5 bd
       0.17033076 0.03001815 1.3710732 -0.088385105
000240 87 71 b8 3f f9 f0 72 40 92 79 25 3f b9 c7 3e bf
       1.4409646 3.7959578 0.64638627 -0.745235
000250 d1 69 57 c1 ab c6 ac 3f ac f7 8f 3f c4 ec 4d c0
       -13.463334 1.3498129 1.1247458 -3.217576
000260 30 9c 59 3f cb 62 44 3f ae a6 76 3e 0b 47 11 c2
       0.8500395 0.76713246 0.24087021 -36.319378
000270 e3 e9 f3 c1 32 0b 5a c2 c0 7f 23 bd 05 4e 70 3f
       -30.489202 -54.510933 -0.039916754 0.9386905
000280 af 06 12 3f 55 fc 54 3f d7 e4 75 c1 e4 fb d5 3e
       0.5704145 0.8319753 -15.368369 0.4179374
000290 18 47 cd be f6 ab a6 bd 2e 0b 8e 3f c8 98 09 c1
       -0.40093303 -0.08138268 1.1097162 -8.5998
0002a0 9a d4 11 40 71 79 08 3f f7 7a d0 3f be a3 e1 c0
       2.2786012 0.53310305 1.6287526 -7.051238
0002b0 be 80 85 40 2c 82 d8 c0 7e 84 00 c2 26 24 90 3c
       4.1719656 -6.76589 -32.129387 0.017595362
0002c0 57 31 11 c1 a7 25 82 3f 10 02 46 c1 c2 eb ae 3e
       -9.074546 1.016774 -12.375504 0.34164244
0002d0 ef fd 30 be 23 ef 15 3f 2d 5f 95 3f 08 9e 80 3f
       -0.17284368 0.5856802 1.166967 1.0048227
0002e0 3e 10 85 c1 14 67 39 3f 52 e8 55 3f 1d 04 14 3f
       -16.63293 0.7242291 0.8355762 0.57818776
0002f0 13 66 57 3f 40 df 86 3f 08 03 e0 3d 4f 7f 5a 3f
       0.8414013 1.053688 0.10938078 0.8535051
000300 7d ca 84 bf db 24 d5 bd ab 37 ee 3f fc 78 a4 bf
       -1.0374295 -0.1040742 1.8610739 -1.2849422
000310 99 a7 5b bf 89 09 ee 3f 9c f4 34 c0 85 5a b7 40
       -0.8580261 1.859666 -2.8274298 5.7297997
000320 cc ff 80 bf f7 69 86 bf dd 0e 9e be 6f ca e9 3f
       -1.0078063 -1.0501088 -0.30870715 1.8264903
000330 d0 17 dd 3f 04 43 de bd cb b4 93 bf 48 4f c1 3c
       1.7272892 -0.10852626 -1.1539549 0.023597375
000340 72 3e be bf db 1e a4 3f 5e ad 83 3b 8e cc 9a 3f
       -1.4862807 1.2821916 0.0040184697 1.2093675
000350 37 63 c2 40 26 f6 93 bf 3a 72 37 c0 c2 61 51 3e
       6.074611 -1.1559494 -2.8663468 0.20447448
000360 a9 62 a1 bf 43 60 d0 bf 67 b1 bb 3f 28 f3 b5 40
       -1.2608234 -1.6279377 1.4663514 5.685932
000370 37 fd ef 40 72 9d 9a 40 f0 44 e3 bc d9 41 41 c0
       7.49966 4.8317194 -0.027742833 -3.019644
000380 32 32 94 3e 20 71 95 bf 3f 08 e9 40 86 0d 23 40
       0.28944546 -1.1675148 7.2822566 2.5477004
000390 a9 cf 16 bf e8 d1 30 bd f0 25 6b c0 79 55 4c 40
       -0.58910614 -0.043168932 -3.6741905 3.1927168
0003a0 25 9e 46 40 c1 f4 c0 3f 17 e8 85 3f e4 88 36 40
       3.1034024 1.5074693 1.0461453 2.8521051
0003b0 d4 ab e6 3f bb 12 12 40 92 d7 ec 3f 05 59 cd 3d
       1.8021188 2.2823932 1.8503287 0.10026745
0003c0 0f 06 90 40 fd 27 73 bf b3 0c 4e 40 89 24 38 3e
       4.5007396 -0.9498289 3.219525 0.17982687
0003d0 d3 6f 3f 3f be 37 3a c0 75 67 e9 bf 65 be 3a c0
       0.74780005 -2.9096522 -1.8234698 -2.9178708
0003e0 d7 4e f4 c1 79 60 47 c0 b4 6e 8f bf 4d c6 48 c0
       -30.538496 -3.1152632 -1.1205659 -3.1371033
0003f0 83 a4 10 bf f9 74 22 c0 a8 d9 f1 3f b9 47 95 bf
       -0.56501025 -2.5383894 1.8894548 -1.1662513

network.2.bias f4 [64]
000000 e0 f4 17 3f fe 47 82 3e ee bc 6c 3f 02 39 f1 bc
       0.59358025 0.2544555 0.92475784 -0.029446129
000010 ae b4 f8 bd b7 05 d7 3e 85 23 da 3f 0c c2 13 3f
       -0.12143837 0.41996548 1.704209 0.5771797
000020 27 f8 65 3f 44 cc bf 3e f0 3a 4c be b0 71 01 40
       0.89831775 0.3746053 -0.19944358 2.022564
000030 e0 bb 80 3f ca 91 d1 3f 03 f0 6e 3e db 3f 07 3f
       1.0057335 1.6372616 0.23333745 0.5283181
000040 4d 47 77 bd 55 0a 04 3f 43 0d 0f be df 4b b9 3e
       -0.060370732 0.51578265 -0.13969903 0.36190698
000050 4f 89 05 3f 7f 4d db bd 07 7a ef 3e e0 39 29 3f
       0.5216264 -0.107081406 0.46772787 0.66103935
000060 49 0d 0f 3f 99 f6 33 3d d4 ed 18 3f 70 26 b4 3e
       0.55879647 0.043936346 0.59737897 0.35185575
000070 62 7d ff 3e 21 45 b5 3e 8a a6 3c 3f b6 74 d2 3e
       0.49900347 0.35404304 0.7369162 0.41104668
000080 4e 31 cd bd e5 aa a0 3e 95 14 a3 3e a0 32 27 3f
       -0.1001917 0.31380382 0.3185164 0.6531162
000090 72 96 cb bd e2 ba 63 3e f4 86 32 3e 62 38 72 3e
       -0.099408045 0.22239259 0.17434293 0.23654321
0000a0 97 43 04 be e1 59 e5 3e ae e1 24 3f 24 98 9e 3f
       -0.12916408 0.44795135 0.6440686 1.239018
0000b0 81 72 fa 3e ec a0 f6 3e f4 a4 33 bd 06 4a dc 3e
       0.48915485 0.4816965 -0.043858483 0.43025225
0000c0 4f 2d c4 bd 55 7a d6 3e af 5b a8 3e 38 8a a9 3e
       -0.095789544 0.41890207 0.3288245 0.33113265
0000d0 aa d0 fd 3e eb d4 d7 3e e0 16 dc 3e cb 87 ea 3e
       0.4957326 0.4215463 0.42986202 0.45806727
0000e0 d5 d8 9a 3e 8b 58 e9 3e b4 03 95 3f 08 ac 4b bd
       0.30243555 0.45575365 1.1641755 -0.04972461
0000f0 de 94 d9 3e 77 e6 61 3e 61 45 94 3f 7b b1 08 3c
       0.4249639 0.22060572 1.1583673 0.008343096

network.4.weight f4 [11, 64]
000000 6f a7 17 40 b8 0e 91 3f 70 8d c6 40 ce 1f 57 c1
       2.3695943 1.1332617 6.2047653 -13.445265
000010 bc 57 9a bd cd 25 1e 40 c6 a5 2d c0 c1 fd 89 be
       -0.07536265 2.4710572 -2.713243 -0.2695141
000020 7c 02 5d bf e4 0f c8 3f ff c1 5d c0 40 4c 88 c0
       -0.86331916 1.562985 -3.4649656 -4.259308
000030 d7 43 a5 c0 06 b8 36 3f 8d 1f a2 3f aa f8 d7 3f
       -5.164531 0.7137455 1.2665879 1.6872761
000040 d5 e5 38 bd b5 e9 7c 3f 46 5b 06 3d 00 96 cf 3f
       -0.04514106 0.9879411 0.03280189 1.6217651
000050 91 20 df 3f 99 c4 05 c1 46 83 be 3f 0f 52 08 40
       1.7431813 -8.360497 1.4883811 2.1300085
000060 b3 b5 e4 3f ab 24 a9 bc 1c 01 8e bf 9f 45 af 3f
       1.786795 -0.020647367 -1.1094089 1.3693122
000070 69 a7 ed 3e f6 59 af 3f 34 8f 23 40 c7 c8 a0 3f
       0.46416786 1.3699329 2.5556154 1.2561272
000080 84 3e ec bc b9 65 ad 3f 5d 87 90 3f 34 44 1e c1
       -0.028838404 1.3546668 1.129131 -9.891651
000090 5a 7b b3 bd 49 e7 84 3f ae 86 a5 3f 3e e4 be 3f
       -0.08763762 1.0383083 1.2931726 1.4913404
0000a0 22 a3 f2 bd 2a e0 34 c0 e6 16 0f 40 6f 0f 23 c0
       -0.11847521 -2.826182 2.2357726 -2.547817
0000b0 8b 70 03 40 df 62 df 3f 00 2e ad 3a 2d 09 a0 3f
       2.053744 1.7452048 0.0013212562 1.25028
0000c0 01 9a c3 bc 9d bb a5 3f fb 4d b7 3f 4f fe ca 3f
       -0.023877146 1.294788 1.4320673 1.5858859
0000d0 7e f8 87 3f e4 0f b3 3f 16 58 b5 3f 42 a3 4d 40
       1.0622709 1.3989224 1.4167507 3.2130895
0000e0 aa 78 a7 3f 0c dd 09 c1 15 52 05 c0 6c a5 5a 3d
       1.3083699 -8.6164665 -2.083135 0.053380415
0000f0 89 42 11 40 64 7d c7 3f 1e 24 ba bf 02 f1 cc bc
       2.269686 1.5585141 -1.4542272 -0.025017265
000100 0e b3 02 40 68 a7 ae 3f 9a ce d7 40 d7 50 43 c1
       2.0421786 1.3644838 6.74397 -12.207236
000110 fc fc 27 bd 66 b8 03 40 d1 e5 2c c0 d9 4b 84 3f
       -0.04101275 2.0581298 -2.7015269 1.0335647
000120 12 fd b9 bf 0c a0 ad 3f a8 e6 52 c0 fc 75 90 c0
       -1.4530356 1.3564467 -3.2953281 -4.5144024
000130 e6 62 9e c0 b1 8f 34 be e6 cf 9c 3f 41 d6 cb 3f
       -4.9495726 -0.17632939 1.2250946 1.592476
000140 87 02 95 bd 2e aa c7 3f ea be 9f 3d 63 08 93 3f
       -0.07275873 1.559881 0.07800086 1.1486934
000150 49 a4 ef 3f e6 1e 75 c0 1d ad b5 3f 27 6d d9 3f
       1.8722011 -3.830011 1.4193455 1.6986436
000160 50 28 14 40 6d 48 91 bd 62 d1 6b bf b2 33 a2 3f
       2.3149605 -0.07093892 -0.9211637 1.2672026
000170 ac ab bd 3f 78 0c bf 3f fe cb 0b 40 3e 90 90 3f
       1.4818015 1.492568 2.1843257 1.1294019
000180 ae a3 24 bd 6b f6 b0 3f 79 fd a2 3f f2 17 04 c1
       -0.04019516 1.3825201 1.2733604 -8.255846
000190 fc 44 fd bc 2a f7 84 3f d3 23 c4 3f c7 51 94 3f
       -0.030916683 1.0387928 1.5323433 1.1587456
0001a0 5e cc cd 3d cf fd 1c c0 b4 93 f8 3f 52 86 03 c0
       0.100487456 -2.4529912 1.9420075 -2.0550733
0001b0 ee 43 f0 3f bf b1 e6 3f 5a 8a ec 3d a2 8c c0 3f
       1.877073 1.8022994 0.11549826 1.5042918
0001c0 86 36 d6 bd 83 eb a5 3f eb c4 a8 3f 32 91 92 3f
       -0.10459618 1.2962497 1.3185095 1.145056
0001d0 0f 9d be 3f 10 4f bf 3f 30 8d b7 3f fc d7 24 40
       1.489168 1.4946003 1.4339962 2.5756826
0001e0 0d 67 8a 3f d2 1d ea c0 ae ff ef bf 7e 85 e0 3d
       1.0812699 -7.31614 -1.8749902 0.109629616
0001f0 7f 6c c5 3f e2 bb 96 3f c5 f9 e6 bf 1f cb 21 bd
       1.5423735 1.1776087 -1.8044974 -0.039500352
000200 23 30 fc 3f 8c 9f 9a 3f 3b 90 05 41 40 21 26 c1
       1.970219 1.207994 8.3477125 -10.383118
000210 70 27 51 bd 96 96 f8 3f 8c d4 3e c0 c2 e0 04 40
       -0.051063 1.9420955 -2.9817228 2.0762181
000220 b0 47 b7 bf d5 2e 8a 3f 25 9b 46 c0 6d c0 78 c0
       -1.4318752 1.0795542 -3.1032193 -3.8867447
000230 75 bf 86 c0 83 36 19 c0 b1 00 a1 3f 6f f8 d0 3f
       -4.210871 -2.3939521 1.2578336 1.6325816
000240 4b 23 fa bb 95 28 d4 3f bc 18 a5 3d 77 7e 86 3f
       -0.007633602 1.6574885 0.08061358 1.0507344
000250 ef 84 ce 3f ea b0 6a bf bc 2c a4 3f ff 2e 0b 40
       1.6134318 -0.916762 1.2826152 2.1747434
000260 c3 5e 35 40 4e 5e fe bc d5 42 48 bf 1e 1b ce 3f
       2.8339088 -0.031050827 -0.7822698 1.6102026
000270 26 35 f5 3f 2b 19 c4 3f cc a5 e9 3f 2d 80 c1 3f
       1.9156845 1.5320181 1.8253722 1.5117241
000280 25 97 5a bd 4a 36 bb 3f aa 5b d7 3f 47 d5 70 c0
       -0.0533668 1.4625943 1.6824849 -3.7630174
000290 5c a9 e8 3c 6d 3d 1f 3f 9c e7 8b 3f fe cd ba 3f
       0.02840107 0.62203103 1.0930057 1.4594114
0002a0 a7 6d 95 3d 17 df 31 c0 dc aa f7 3f dd cb 1b c0
       0.07296305 -2.7792413 1.9349017 -2.4343178
0002b0 ea d9 be 3f 68 fc d3 3f c8 6f cb bc 35 f8 d3 3f
       1.4910252 1.6561403 -0.024833575 1.6560122
0002c0 ec 23 d1 3d 44 8c 92 3f ca c7 7a 3f 15 63 86 3f
       0.1021193 1.1449056 0.97961104 1.0498987
0002d0 f9 6b be 3f 5b 67 97 3f 7e 51 87 3f 71 ab 21 40
       1.4876701 1.1828417 1.0571744 2.526089
0002e0 89 f6 26 3f f4 51 94 c0 b3 63 11 c0 44 da 5a 3d
       0.6521993 -4.635004 -2.2717102 0.05343081
0002f0 e7 78 c0 3f 4b da 91 3f 1c 23 08 c0 71 b8 b8 3d
       1.5036896 1.1394743 -2.127143 0.090195544
000300 d6 b5 f6 3f c9 3e a2 3f 62 e7 a8 40 2f 24 53 c1
       1.9274242 1.267541 5.278245 -13.196334
000310 24 fd f6 3d 10 79 05 40 b4 e4 65 c0 70 33 dd 3f
       0.120600015 2.085514 -3.592084 1.7281322
000320 f6 7e cb bf dc 17 92 3f c8 49 7c c0 79 33 9c c0
       -1.589812 1.1413531 -3.9420033 -4.8812833
000330 d8 56 96 c0 fc b5 02 c0 bf fe 9f 3f 98 16 f9 3f
       -4.698101 -2.0423574 1.2499617 1.946002
000340 5c 69 97 bd 0a 3a e4 3f c7 88 d7 bd 04 76 a2 3f
       -0.073931426 1.7830212 -0.10524135 1.2692266
000350 d6 f3 03 40 5b a5 82 c0 d3 b5 a5 3f fe 1a e1 3f
       2.0617576 -4.082685 1.2946113 1.7586362
000360 1c ac b5 3f 46 1c 1f bd d0 26 b1 bd a5 6e a3 3f
       1.4193149 -0.038845323 -0.08649981 1.2768141
000370 6b 5e ec 3f 2a 39 a1 3f 9e b8 f2 3f 8d 84 a4 3f
       1.8466314 1.259557 1.8962591 1.2852951
000380 be e7 b8 3d 17 cd 9a 3f e4 c4 a1 3f ab 8f ad c0
       0.09028576 1.2093838 1.2638211 -5.4237876
000390 7b 48 36 bd fc ec a5 3f 0f f1 c3 3f 9e c2 a0 3f
       -0.044502717 1.2962947 1.530794 1.2559392
0003a0 77 47 06 be 80 7f 36 c0 85 1b f7 3f e9 4b ee bf
       -0.13113199 -2.851532 1.9305273 -1.8616916
0003b0 7c 5f 07 40 58 0d 05 40 c8 36 e7 bc 74 a6 a5 3f
       2.115203 2.0789394 -0.028224364 1.2941422
0003c0 a0 68 fe 3d 4c 18 a7 3f f7 b3 84 3f 1e ea a0 3f
       0.124222994 1.305429 1.0367421 1.2571447
0003d0 71 23 a5 3f 64 74 a8 3f db c9 95 3f 0b aa 10 40
       1.2901441 1.316052 1.1702226 2.2603786
0003e0 27 31 a4 3f 3c 69 94 c0 20 37 f1 bf c8 2a fd 3d
       1.28275 -4.637846 -1.8844948 0.123616755
0003f0 99 c0 f1 3f b9 c7 a8 3f a8 e7 cf bf 89 9a 7f bd
       1.8886901 1.318595 -1.6242571 -0.062403236

network.4.bias f4 [11]
000000 66 5a 1b 3b bf 9c 76 3f d1 cf 3a 3f 08 49 79 be
       0.0023705005 0.96332926 0.7297335 -0.24344265
000010 df 80 69 be 54 9e c3 3e f9 4b 6e 3f 70 03 86 3f
       -0.22803067 0.38206732 0.93084675 1.0469799
000020 ba ef 3f 3f 2b b3 20 3e 60 cc 32 3e
       0.7497517 0.15693347 0.17460775
